Examples/BasicExample/Models/look_LRUD_model.tflite (tflite, 618044 bytes, 8 tensors)

dense_4/Tensordot/MatMul_bias f4 [500]
00000000: 3a4b c8bc 0000 0000 09ce 2d3b f70e f6bc
00000010: c62f 08bd 13ac 92bc 0000 0000 0000 0000
00000020: a542 fabc 0000 0000 b8e2 3f3c ff7f 39bd
00000030: 5955 42bd 0000 0000 47f5 c93c 74f9 6d3c
00000040: 20a1 b43c aaa5 d3bc 4ab9 5fbd c179 5abc
00000050: 0000 0000 4280 083c ef1b 42bd 4b69 f0bb
00000060: 048c 823b 8a52 27bd 6dae 1abc 3dc9 13bd
00000070: 14d6 f8bc 262b b73c f5f8 e6bc 7911 273d
00000080: c58b 9c3c 0000 0000 0000 0000 21ae 42bb
00000090: f7d8 83bc 6230 76bc feca 44bc 6da2 cf3c
000000a0: f1d6 cc3c 3f96 17bd 750f 82bb 3515 103c
000000b0: 0000 0000 0000 0000 f4a7 78bd 0000 0000
000000c0: 0000 0000 0000 0000 0000 0000 0000 0000
000000d0: d742 98bd 0e2f bc3b 21b5 19bd 0000 0000
000000e0: 2952 a2bc a8d3 e3bc 8258 d2bc b000 413c
000000f0: 5755 6fbc 80d0 b3bc 0000 0000 0000 0000
00000100: 0000 0000 96dc 05bd 7c29 d0bc a41a 03bc
00000110: 1bfe 943c 0000 0000 8d9b 6a3c f4ca f83c
00000120: 128a d43c 22b4 3fbc c309 9ebb 80cd 49bc
00000130: ba28 96bc 6ef2 1cbc e13e 4abd 2d09 1b3c
00000140: 30a3 ecbc b0b4 ec3c b7f6 233d 0f1a 59bd
00000150: 3557 b5bb f4bd 9dbc 491a 18bd 2f57 6f3c
00000160: d022 efbc 0000 0000 0000 0000 2560 a63b
00000170: 61f0 033c c5df 11bd 0000 0000 7d5e 47bd
00000180: 8c01 b5bc e0ec ca3c 0000 0000 89b7 24bd
00000190: 3d93 f0bc e22c fbbb 3b08 c9ba af45 59bc
000001a0: 5646 4cbc cb06 fbbc 59d2 853b 1a28 253d
000001b0: e354 bebc a984 a13c 8fbe 79bc d74d e73c
000001c0: 4d5d 15bd e507 b6bb 4541 2d3c bfc5 ebbc
000001d0: 0000 0000 d66c 0b3c 9999 3abd 1afa 903c
000001e0: 4cc0 6abc 0000 0000 cc60 1dbc 0000 0000
000001f0: 0000 0000 3d1f 2ebc e58b 0bbd 62de 2c3c
00000200: 2873 f4bc 335f 84bc 0a0d b53c 0000 0000
00000210: 30ea 3bbc 7376 0a3c 0000 0000 7dfb 05bd
00000220: f1b2 3b3b d345 b4bc 6ba9 0e3c 0000 0000
00000230: 0000 0000 0000 0000 0000 0000 3519 8cbc
00000240: 0000 0000 0cd4 11bd 0000 0000 c6c6 1dbd
00000250: b666 c3bb 7c92 1c3d 1327 1c3c e54a 0b3d
00000260: 02cd e43c 0000 0000 0000 0000 142c d5bc
00000270: c152 db3c 3558 443d c878 f7bb 0000 0000
00000280: 0000 0000 0000 0000 7630 f2bc 07bb 38bd
00000290: b63b 31bd 8531 2f3d 0000 0000 0000 0000
000002a0: f67a 01bc 6510 48bd 9546 2ebc e1ba 873c
000002b0: 0000 0000 0000 0000 2f9f 27bc 5e15 e7bb
000002c0: 3e48 96bc 1923 c4bb 97a9 3b3b b04a 6ebc
000002d0: f989 103d dea9 4dbd dc6a 753d 3564 103d
000002e0: f73d 903b 0000 0000 3932 393d 7915 aebc
000002f0: 0000 0000 0000 0000 5d55 123c 4ff4 eb3c
00000300: 2ea3 0abd 1c50 793a 5483 923c 4703 8fbc
00000310: 6f0c 18bd 1ee9 973b 0000 0000 915c ab3b
00000320: 0000 0000 7cbe 95bc 646a b6bb d014 55bc
00000330: ee51 283c b9f7 16bc 2dab d9bb 4276 803a
00000340: fdb0 11bc 243c 73bd f914 323b fdb6 1d3d
00000350: ed23 00bd df99 50bd e237 b3bb ab65 57bc
00000360: 0000 0000 d3cb fd3c 2f38 2fbd 9657 da3b
00000370: 46fc 85bc 3221 163d 9399 e5ba 0000 0000
00000380: 690c 84bc 57ef e03b dc86 823c 09ce 003d
00000390: 0000 0000 a9f1 e6bc 0000 0000 0000 0000
000003a0: 64e5 47bc 3b2a bebc 1c39 e9bc f643 143d
000003b0: 8dcd 31bd 0a59 3f3c 6705 95bc 6e96 a63c
000003c0: b058 0d3d d6bf 313c 0000 0000 c037 01bc
000003d0: a969 14bd c41e 353d 0000 0000 0000 0000
000003e0: 5e6a 7f3b 0000 0000 b16b b7bb 408c 22bc
000003f0: 7799 a5bb 0b3b 83bb 7656 dabc 0000 0000
-0.024449933 0.0 0.0026520512 -0.030036433 -0.033248685 -0.017904317 0.0 0.0
-0.030549357 0.0 0.011711769 -0.045288082 -0.047444675 0.0 0.02465309 0.014524806
0.022049487 -0.02583583 -0.054620065 -0.013334692 0.0 0.00833136 -0.04738992 -0.0073367706
0.0039839763 -0.0408502 -0.009441 -0.036080588 -0.030375518 0.022359442 -0.028194884 0.040788148
0.019109616 0.0 0.0 -0.002970584 -0.016094668 -0.015026184 -0.012011288 0.025346005
0.025004836 -0.03700852 -0.003969128 0.008794119 0.0 0.0 -0.060707048 0.0
0.0 0.0 0.0 0.0 -0.07434624 0.005742914 -0.037526254 0.0
-0.019814568 -0.027810887 -0.02567697 0.011779949 -0.014607749 -0.021950006 0.0 0.0
0.0 -0.03268107 -0.025410406 -0.008001957 0.018187573 0.0 0.014319313 0.030370213
0.025944743 -0.011700662 -0.004822941 -0.012317061 -0.018329967 -0.009579284 -0.049376372 0.009462637
-0.028886408 0.028894752 0.040030207 -0.053003367 -0.0055340775 -0.019255616 -0.037134442 0.0146081885
-0.029191405 0.0 0.0 0.0050773793 0.008052916 -0.035613794 0.0 -0.048674095
-0.022095464 0.024771154 0.0 -0.040214095 -0.029367084 -0.0076652626 -0.0015337536 -0.013261243
-0.012467941 -0.030642888 0.0040839133 0.040321447 -0.023233837 0.019716578 -0.015243187 0.02823536
-0.03646593 -0.0055551403 0.0105746435 -0.028780816 0.0 0.008509835 -0.04555664 0.017697383
-0.014328074 0.0 -0.009605598 0.0 0.0 -0.010627565 -0.03406896 0.010551067
-0.029840067 -0.016158676 0.022100944 0.0 -0.011469409 0.008451092 0.0 -0.03271054
0.0028640593 -0.022005951 0.008707385 0.0 0.0 0.0 0.0 -0.017101863
0.0 -0.035602614 0.0 -0.038519643 -0.005963172 0.038225636 0.0095308 0.034006972
0.027929787 0.0 0.0 -0.026021995 0.026772859 0.047935683 -0.00755224 0.0
0.0 0.0 -0.029564124 -0.04510024 -0.043269835 0.042771835 0.0 0.0
-0.007902851 -0.04884376 -0.010636945 0.016568603 0.0 0.0 -0.010230823 -0.0070521077
-0.018344995 -0.0059856293 0.002863502 -0.014544174 0.03528783 -0.050210826 0.059916362 0.035251815
0.004401918 0.0 0.04521391 -0.021250473 0.0 0.0 0.008931485 0.028803019
-0.033847027 0.00095105334 0.017884888 -0.017457617 -0.037121233 0.004635944 0.0 0.0052295406
0.0 -0.018279307 -0.005566882 -0.01300545 0.01027344 -0.009214335 -0.00664272 0.0009800869
-0.008892295 -0.059383526 0.0027173145 0.03850459 -0.03128426 -0.050927993 -0.0054693082 -0.013146798
0.0 0.03098098 -0.04277819 0.006663273 -0.016355645 0.03665275 -0.0017517082 0.0
-0.016119199 0.006864469 0.015933447 0.03144649 0.0 -0.028191404 0.0 0.0
-0.012200687 -0.023213496 -0.028469615 0.036197625 -0.04340892 0.011678943 -0.018191053 0.020335402
0.034508407 0.01084896 0.0 -0.007886827 -0.036233578 0.044218794 0.0 0.0
0.0038973312 0.0 -0.0055975546 -0.0099211335 -0.005053695 -0.004004841 -0.026652556 0.0

dense_4/Tensordot/Reshape_1/transpose f4 [500, 6]
00000000: 3569 b8bd e14d 38bc 2faf 163e 2f2e b83d
00000010: c91a 853c 40be 093c 0034 413c 30d6 613c
00000020: 0296 08bd 2ed8 98bd 9caf a9bd 20ca d0bc
00000030: 6737 433d 4379 96bd 44f2 c53d db66 d2bd
00000040: 074e b2bd 0d76 ea3d 3298 7fbc ed68 393c
00000050: 564c bd3d 022f 003d b4d3 82bc 3a4b 313c
00000060: 876d 063d baaa 6cbd fb99 953d d08b 0d3d
00000070: 71f5 77bd eebf ba3d b207 463d 3f88 843d
00000080: dcfa 1bbd c405 b53d b803 fe3c 871d 15be
00000090: 3839 30bc badc c8bd 70cc 45bd 146d a5bc
000000a0: cb97 863d 38fc b3bc 9291 cbbd 28b2 3abc
000000b0: 88ee c3bd 343b c9bd e213 16bd 1357 c3bd
000000c0: 5080 783c 7740 a2bd 7784 a3bc 408b c33c
000000d0: 3a37 393d adf4 b63d 607a 9bbb 37a8 acbd
000000e0: a80c edbc 64fd 81bd deea 24bd 78df f4bc
000000f0: 5826 fdbc 6bfb 94bd 902e 043d 19f6 e43d
00000100: c848 dabd b368 b1bd 163e ecbc c4cd ae3d
00000110: f12a e93d 956f cc3d 9d36 ea3d ae95 debd
00000120: ff4b 483c b93b 9b3c e67d 813d 7dfa a93d
00000130: 6010 2dbc ffc9 4fbd aedd 95bd 8ca7 b3bd
00000140: f0f2 c7bb 0054 e5bb 0c2b 8bbc 6808 3b3c
00000150: 7946 e53d a8da ae3d 2b39 b6bd 0ff4 d7bd
00000160: 89c9 eb3c 91e4 14bd 6b5f a63d 8006 593d
00000170: 3880 d2bc 20fa 1aba 88c4 95bd 777b c0bd
00000180: f259 c53d a274 213d 2b4f 15be d7f6 d23d
00000190: c5fc 2dbd c954 493d 6f54 833d 5140 48bd
000001a0: 15a7 fc3c 12a8 de3d d3d0 a73d 66fa efbc
000001b0: b87a 523d a03e 233c fd49 c83d 5d81 ab3d
000001c0: b0c3 873c 36e2 a6bd 6225 8a3d 1b91 733d
000001d0: b5d3 25bd f7d3 8bbc a239 e3bd dec7 d53d
000001e0: 06a5 223d b237 b4bd 5834 94bd cd80 c2bd
000001f0: 1cc4 ee3c 9465 fd3c 3792 7cbd a3af 883d
00000200: e8bc 1dbd 4ea2 363d fd51 163e c1eb 73bd
00000210: e688 ac3c 6922 24bd 6ff4 d83d 15cc 303c
00000220: 103c 513d e75c 373d 5889 b6bd a7cf 6f3d
00000230: fef2 98bd aaaf da3c a8af 97bd a6ef 823c
00000240: cc36 febd 82a2 a73d 48f9 073e eed4 2dbd
00000250: 2365 0ebe 6986 3e3d 8ec8 5abd 08c9 34bc
00000260: 96da d33c 9594 cfbd 738b fa3d 81af b23d
00000270: dfc6 9dbc 1bde 0e3d 491e cc3c 5037 37bd
00000280: d79b b8bd 5935 ffba b60f 78bb 9b84 483d
00000290: c96d 903d c3b2 d73a 99cc 5abd d604 603d
000002a0: b98e c43c e508 16bd 6af0 dd3d a88f f43a
000002b0: f79e 053e bd53 8ebd 073b e63c bc5b 67bb
000002c0: 9147 dfbc b437 18be fd57 b4bd 1970 9d3d
000002d0: 0c17 223c 6be7 9fbd affa 143e d748 c83d
000002e0: bf3d 84bc 0dba 953c d0fe 6fbc a7f4 c23d
000002f0: 8c8d 4abd 2b43 843d 9eeb b6bd 2295 2dbd
00000300: 8ed4 383d ad58 dbbd f87a 44b7 c6fa 283d
00000310: f64d fbbd c3b4 b73d 982a 49bc 8aeb 85bd
00000320: c034 b8ba acd0 e0bc d07f f5bc b439 d23c
00000330: 1fd0 9f3d 21f9 8dbd 57df a1bd 5a4f 9bbd
00000340: c314 debd 8b25 973d 4abb 423c c14d 6c3d
00000350: 6e4b c6bd 9f3c c3bc 19ac 513d 1769 a93d
00000360: ca4a 75bd 3bc2 8abd 671b 0e3d 0761 d73d
00000370: d6d7 0a3e 250b 963c ab5e 07bc 9274 d33c
00000380: 8c49 9e3d e67a 81bd aa4d 9dbb e981 153d
00000390: 07fd d4ba 3376 913d af2f a93c 86d8 1c3b
000003a0: e756 93bc ddb2 b7bd f105 113d e469 86bd
000003b0: 0133 f9bd 8998 cd3d 7b50 b53d 9451 033d
000003c0: 52be 253d 69eb 8fbd 1d95 e6bd 4ccf a53d
000003d0: b785 743d 735c 983d 2de3 9e3c f0f9 f13b
000003e0: 87fd 433d 8502 5abd a72f fc3d 303c 833c
000003f0: 2f3e 62bd 98c0 d6bd 0050 673d d638 7fbd
-0.09004442 -0.0112490365 0.14715265 0.08993184 0.016248124 0.008407176 0.011792183 0.013783976
-0.033346184 -0.07463108 -0.08285448 -0.025487006 0.047660258 -0.073473476 0.09665349 -0.102735244
-0.08706289 0.11448298 -0.015600251 0.01131652 0.092430755 0.03129483 -0.015970089 0.010821158
0.032819297 -0.057780005 0.0730476 0.034557164 -0.060536806 0.09118639 0.048347183 0.064712994
-0.038081035 0.0883899 0.031007633 -0.14562045 -0.0107558295 -0.09807725 -0.04829067 -0.020193614
0.06571921 -0.021970853 -0.09939875 -0.011395015 -0.095669806 -0.09825745 -0.036640055 -0.095380925
0.015167311 -0.07922452 -0.019960625 0.02387011 0.045218684 0.08933387 -0.004744813 -0.08430522
-0.028936699 -0.063471586 -0.04026305 -0.029891714 -0.030902073 -0.07274517 0.032270968 0.11179752
-0.10658413 -0.08662548 -0.028838199 0.085353404 0.113851435 0.0998222 0.11436198 -0.10868393
0.01222515 0.018949376 0.06322841 0.0829973 -0.010562986 -0.050729748 -0.07317673 -0.087721914
-0.0061019585 -0.006998539 -0.0169883 0.011415578 0.11195082 0.08537799 -0.08897623 -0.10544597
0.028782623 -0.03635079 0.08123668 0.052984715 -0.025695905 -0.00059119053 -0.07312876 -0.09398549
0.09636296 0.03941787 -0.14580981 0.10300987 -0.042477388 0.049153123 0.06412589 -0.048889462
0.03084139 0.108719006 0.08194127 -0.029294204 0.051386565 0.009963661 0.09779737 0.083742835
0.016572803 -0.08148615 0.067454115 0.059464555 -0.040485103 -0.017068846 -0.11094977 0.10438512
0.03970816 -0.087996855 -0.07236546 -0.09497223 0.029146247 0.030932225 -0.06166288 0.06674125
-0.038510233 0.04458838 0.14679714 -0.059551004 0.021061372 -0.04007188 0.10593497 0.010790844
0.05108267 0.044766333 -0.08912915 0.058547642 -0.07468222 0.026695091 -0.07406551 0.015983414
-0.124127954 0.08185293 0.13278687 -0.042439394 -0.13905768 0.046514902 -0.05341392 -0.011034258
0.025861066 -0.10135762 0.12233629 0.08724881 -0.019259868 0.034879785 0.024916785 -0.044730484
-0.09014099 -0.0019470855 -0.0037851161 0.048954587 0.0705219 0.0016456473 -0.053417776 0.054692112
0.023993837 -0.036629576 0.10836871 0.0018658536 0.13048922 -0.069495656 0.028104318 -0.003530248
-0.027255805 -0.14864999 -0.08805845 0.076873966 0.00989319 -0.07807811 0.14548753 0.09779518
-0.016142724 0.018277192 -0.014648154 0.0951932 -0.049451396 0.06458124 -0.08931659 -0.042378552
0.045124583 -0.10710273 -1.1711141e-05 0.04125478 -0.12270729 0.089700244 -0.012278222 -0.06539066
-0.0014053807 -0.027443253 -0.029968172 0.02566228 0.07803368 -0.06932283 -0.07903927 -0.075834945
-0.10843804 0.07380208 0.0118854735 0.05769134 -0.09682356 -0.023832617 0.051189516 0.082719974
-0.059885778 -0.06775328 0.0346941 0.10516553 0.13558897 0.018315861 -0.008262317 0.025812421
0.07728872 -0.06322269 -0.004800518 0.036500845 -0.0016249724 0.07102623 0.02065262 0.002393277
-0.017985774 -0.08969662 0.035406057 -0.06563166 -0.12167931 0.100388594 0.08853241 0.03206022
0.040464707 -0.07027323 -0.1125891 0.08096179 0.059697833 0.07439508 0.019395435 0.007384531
0.047849204 -0.05322506 0.123137765 0.01601991 -0.055235084 -0.10485953 0.05647278 -0.062310062

dense_5/Tensordot/MatMul_bias f4 [200]
00000000: 61fc 1d3d f7d6 c0bc 60c0 993c c68c e23c
00000010: bef6 5bbc 21b8 99bb d308 c3bc 18f0 2cbc
00000020: 82bc 17bc 375d c3bc f29d a5bb 8d4e f8bc
00000030: 8c60 b2bc 1225 b5bc 4fed 99bc 800f 99bb
00000040: 27e9 8f3c d8b9 673c b092 f0bb d92f 903c
00000050: 9d16 ec3c 0000 0000 6384 6fbc 4e7f b53c
00000060: 02f9 4d3d 76a6 66bc 1d13 3cbc 51b3 69bc
00000070: 8f0c a53b 4980 17bc acb1 c4bb 5f05 aebb
00000080: f1bd 263d f45a b2bc eb9c fbbb 003c 8dbb
00000090: fbbe 9abc 3062 f5b9 1c0d cbbb 6407 9239
000000a0: 459d e23c 16ff 03bd 5973 ad3c b729 9e3c
000000b0: 04da e1bb 8630 d7bb 4d59 1b3d f93e 03bc
000000c0: eb8a e7bc 0000 0000 0000 0000 bfb0 223d
000000d0: 7962 64bd f36d b03b 39fb 293b 8493 09bd
000000e0: b02f af3c ee37 193c 5645 10bc cdb3 4f3c
000000f0: 89a2 ec3c 758a c4bb 36cb ed3b a74f 19bc
00000100: 379f e2bb 7429 643b 38ee 39bc 3032 0bbd
00000110: c98c 3f3c 180e f1bc d367 1abd 46ca d8bb
00000120: b80d 263d 18df 10bd f9c2 eb3b 3ee8 813c
00000130: b81a 8c3a 22cb c9bb 215d b5bb 55dd 43bc
00000140: 133c 64bc 80ba 8d3c bfa1 08bc 1dfe 71bb
00000150: 6109 88bc a56d 683c 259f 1e3d cc84 03bc
00000160: cb6e a53b d9dd 55bc 4489 bfbc aa87 adbb
00000170: 3184 c7bb d6f4 193d f9df 053d 4049 cdbb
00000180: 79a5 8cbc 3c9a 7ebc 7f8e f23c 7bd8 68bc
00000190: d4f0 3cbc 426a 0bba e380 8dba 5f6b b0bc
000001a0: 57dc d83c b50d f5bb ebac c1bc e514 223d
000001b0: 386c 8cbc bfc0 f6bb 06be a83c 1899 d33c
000001c0: d980 bb3c 7f01 d33c 8192 09bc decf a13a
000001d0: 6f39 e3bc 8337 263d 935c cabb 8be5 79bc
000001e0: 6d71 07bd 034d 5ebb 04d3 053d 0000 0000
000001f0: 2185 8cbb e93c 30bb 0c0a 233d 57a9 49bc
00000200: 64f5 05bc ac5f 4a3a 854d 94bc 8269 11bc
00000210: 6a33 a73b 0132 c7bc 37c1 b4bb 5799 85bc
00000220: 3395 a1bc cd65 94bc be81 fcbb 119d f53b
00000230: f2b1 56bc f258 9dbc 6f39 75bb 8274 80ba
00000240: d9f7 c6bb 0000 0000 8d58 33bc 4ae4 8abc
00000250: 568f 4dbc 6f8f eebb 889a 1abc 4329 b0bb
00000260: f5f1 a43a 85c1 cdbc eba1 c4bb 3cbf db3c
00000270: 2c61 e9bb fc6c c4bb 366a a7bc a7d9 00bc
00000280: 1765 86bc 42e6 bfbc d890 07bc 0000 0000
00000290: 9971 d2bc a1a8 e9bc 0614 b1bc 017d 83bc
000002a0: d027 88bc f8e1 0ebc ec34 78bc 82c9 c9bc
000002b0: a928 c2bb 727b 31bd fd2e 413d 0000 0000
000002c0: 68db 0abc 92fe e4bb d000 b1bb 0000 0000
000002d0: 17a4 d7bc f9ad a1bc 9649 0abc 51dd 88bc
000002e0: 03be debc 2b80 40bc 93c0 22bc 0bf0 25bc
000002f0: 8a1a d6bc af78 e8bc a1a1 f7bc f56d a63c
00000300: 5d3a acbc 5bba 1e3b ba47 3bbd e0ba 01bb
00000310: ca53 c6bc decd e2bc 8a50 9239 c306 52bc
0.038570765 -0.023540003 0.01876849 0.027655017 -0.013425527 -0.0046911393 -0.023807919 -0.01055529
-0.009261252 -0.02384816 -0.005054229 -0.030310893 -0.021774553 -0.022112403 -0.018789915 -0.004671037
0.01756723 0.01414343 -0.0073417053 0.01760094 0.028819377 0.0 -0.014618966 0.02215543
0.0502863 -0.014077773 -0.011479166 -0.014263944 0.0050368975 -0.009246894 -0.0060026255 -0.005310699
0.040708486 -0.021771885 -0.007678618 -0.004310131 -0.018889895 -0.00046803197 -0.006196631 0.00027852796
0.027662883 -0.03222569 0.021173166 0.019307 -0.0068924446 -0.0065670637 0.03792696 -0.008010619
-0.028264483 0.0 0.0 0.03971934 -0.055757973 0.0053842007 0.0025937094 -0.033587947
0.021385044 0.009351714 -0.0088055935 0.012677145 0.028886097 -0.0059979507 0.0072568906 -0.0093573695
-0.0069159525 0.0034814747 -0.0113483 -0.03398341 0.011691281 -0.029425666 -0.03769667 -0.0066159097
0.040540427 -0.03536901 0.0071948734 0.015857812 0.0010689115 -0.0061582485 -0.0055347835 -0.011954625
-0.013930338 0.017300844 -0.0083393445 -0.0036925145 -0.016606035 0.014186298 0.03872599 -0.008027267
0.005048608 -0.013053381 -0.023380883 -0.0052957134 -0.0060887565 0.03758701 0.0326843 -0.0062648356
-0.017168747 -0.015539702 0.029608963 -0.014211769 -0.011532027 -0.0005318263 -0.0010795858 -0.021535574
0.026472254 -0.0074784406 -0.023642024 0.039570708 -0.017141446 -0.0075303013 0.020598423 0.025829837
0.022888588 0.02575755 -0.008396746 0.0012345274 -0.027737347 0.040580284 -0.0061755865 -0.015252481
-0.033067156 -0.0033920414 0.032671943 0.0 -0.004288331 -0.0026891774 0.039804503 -0.01230844
-0.008176181 0.00077199447 -0.01810337 -0.008875253 0.0051025646 -0.024315836 -0.005516197 -0.01630847
-0.019724464 -0.018114949 -0.007705896 0.0074955304 -0.013103949 -0.019207451 -0.0037418266 -0.0009800347
-0.006072026 0.0 -0.010946405 -0.01695456 -0.012546381 -0.007280282 -0.009436257 -0.0053760125
0.0012584316 -0.025116691 -0.0060007474 0.026824586 -0.0071221795 -0.0059944373 -0.020436388 -0.007864392
-0.016405625 -0.023425225 -0.00827428 0.0 -0.025688933 -0.028522791 -0.021615993 -0.016050817
-0.016620547 -0.008720867 -0.015149336 -0.02463222 -0.005925257 -0.043330617 0.047163952 0.0
-0.008475162 -0.006988355 -0.005401708 0.0 -0.026323361 -0.019736277 -0.008440396 -0.016707094
-0.027190214 -0.011749308 -0.009933609 -0.0101280315 -0.026135702 -0.028377859 -0.030228438 0.020316103
-0.021023924 0.0024219963 -0.0457227 -0.0019795224 -0.024209876 -0.027686056 0.00027907296 -0.012818995

dense_5/Tensordot/Reshape_1/transpose f4 [200, 500]
00000000: fae6 11bd e018 b83c 79ea b7bd 083a 0fbc
00000010: c36b 95bd cb18 febc f0c8 c53b e352 ad3d
00000020: c501 403d a0b2 603b 0eb1 c13c 1b75 8e3b
00000030: 2424 c1bd 81db b9bd 3a83 c13d a166 8b3d
00000040: 50d9 d23d 8bcf abbd e103 c6bc 0555 8bbd
00000050: 8c76 fb3c 71a2 143e 1153 bebd c676 85bd
00000060: e4dc 01be 702e 983d 6193 8fbd a33d b3bd
00000070: 668d 713d f31f b33d f546 873c 454c 683d
00000080: 8373 0a3d 2319 983d d1c2 46bd a5a4 853d
00000090: ae48 ab3c fdf3 8fbd 3ade b0bc 32fa dd3c
000000a0: 89ec b13d 4cb3 b7bc 0b7a 9d3d 9ee6 c93b
000000b0: ca62 273d 6d5c a03d 0838 0bbd 29ed a63d
000000c0: 9743 a0bd 38e8 6e3c d8df e63c ade8 ba3d
000000d0: 4ab2 b13a 8237 d23a 2574 5cbd e491 bb3c
000000e0: ebd1 a03d a4c4 c7bd 8587 e93c c5f5 95bc
000000f0: e24e f23c a1e8 79bd 8d8c 8cbd fb9d a63d
00000100: 58ae d23c 0039 843d 5433 aabd 9639 cabc
00000110: b215 8d3d 9a14 7c3d e11f 043e 9e4e 193e
00000120: 33b3 a23c 7274 8bbd 78cf 72bd 6c7f 973b
00000130: 55bc 33bd 5674 91bd 860a 353d 2b15 f23c
00000140: 33ef 10bd 1339 a73d 131f 3d3e 1b69 953d
00000150: 39a6 79bd e8cb c63c 0281 6a3d d358 be3d
00000160: 08d1 643d af36 0dbd e406 a83c 1616 573d
00000170: 47f6 403e 0c77 dabc 6d00 a63d b0e2 623d
00000180: 3b67 1fbc c20f d83d a0c3 23bc 9672 05bd
00000190: 76c3 20bd 1b09 debd 12f2 6fbd d998 6cbb
000001a0: 3642 203d 210b bcbc dafa ff3c e26f f43d
000001b0: ffd0 96bd 209a c43d 8afb aa3d ca1c c8bd
000001c0: 2485 5b3c 51b1 083d 678c b43d 6db4 8f3c
000001d0: f784 20bd 21e0 58bc 4c42 9a3d 38ba 5f3d
000001e0: 90d7 5a3d b07b 09bc 792d 0bbc 70db 933b
000001f0: f34c bb3d 67b5 893c 1eca 0d3d 2e20 993d
00000200: 409f 93bd 93dc 3ebc 858d 013d b737 9b3d
00000210: c58a 2ebd 0c47 afbc 325c b2bd 24aa 5b3d
00000220: 5539 f539 0b71 213d 87c1 c43b 886e 8bbc
00000230: 9f26 70bd 71df a1bd 57ee a8bd 90ee 8f3d
00000240: 20fe fa3b 7651 7a3d 54d7 bf3c d879 993d
00000250: 78f4 813d 83ec 503d 6ea5 003e 77a6 423d
00000260: 79de 86bc 6953 bd3d 9596 33bd 84fe 89bd
00000270: 1299 8b3d 8fda 2bbd 940d 14bd 1748 8fbd
00000280: 960c bdbd d52d 9e3d 2575 693d abb5 d2bd
00000290: 6b14 aabd 08f3 183e a098 39bd ab65 ad3d
000002a0: f72a 08be bd68 c23d 81b6 5a3d fc6e 0c3e
000002b0: 5d17 32bd 1b6d 3ebd f22f 0abd 3b87 503d
000002c0: d330 f43d 0d45 8fbd 378f af3c 061f 8bbd
000002d0: 7da2 ae3d 2469 823d cb3f 903d 366a 603c
000002e0: 8340 93bd cad6 333d 1d79 e13d c00e 8c3c
000002f0: 3318 50bd cb70 913d 325e 383b c353 443d
00000300: db78 e53c ef90 2c3d 40fc 253d 98d3 9bbd
00000310: 9911 543d 8721 9c3d 601c 26bd 6d5e 20bd
00000320: 00f4 49bb 4ffc b13b fe3d b33d 14ce 34bd
00000330: dce0 89bd b931 2c3e 3ffe fd3c 854d a2bb
00000340: 069f af3c e8cd a3bd e92a 56bd 5b59 513d
00000350: d5a1 883d 8351 333c e3b7 b1bd f36c bb3d
00000360: ce6a a7bd 5145 0aba 7cf3 803d 0f12 873d
00000370: d10e 99bd 25fa 90bc ba10 923d f249 383d
00000380: 5601 b63d e6ad 8e3c 97bb d03d d94f f23d
00000390: d4e3 bf3c a4d5 9ebd 78ce 0a3c 52e5 6d3d
000003a0: 5f80 f1bc b5c5 acbd 6862 803d 3569 683c
000003b0: 4ec7 8dbd 6a28 14bd 208b 913d 0847 56bc
000003c0: 46cf 94bd 54c7 173d 208a 9cbc bb01 bfbc
000003d0: 994c b23c f1b8 053d 903c 453c 58cb 6ebd
000003e0: bb9b 113e 7053 113c ba3a 9f3b f16a 12bd
000003f0: 7dc7 7b3d a0f9 ccbd 1aca a3bd 7221 0e3d
-0.035620667 0.022472799 -0.08980269 -0.008741863 -0.072959445 -0.031017682 0.0060359165 0.08463075
0.046876688 0.0034286156 0.023643997 0.004347456 -0.094307214 -0.0907507 0.094488576 0.06806684
0.10295355 -0.08389195 -0.024171771 -0.068033256 0.030696176 0.14515091 -0.092931874 -0.06516795
-0.1268192 0.07430732 -0.07010532 -0.08751991 0.05897274 0.08746328 0.016513327 0.05671336
0.033801567 0.074266694 -0.048525635 0.06525544 0.02090868 -0.07028959 -0.02159034 0.027096841
0.086876936 -0.022424363 0.076892935 0.006161525 0.040865697 0.07830129 -0.033988982 0.081507035
-0.07825392 0.014581732 0.028182909 0.09126411 0.0013557163 0.0016038271 -0.0538217 0.022896715
0.07852539 -0.09754303 0.028507004 -0.018305669 0.02957863 -0.061012868 -0.068627454 0.08135601
0.0257179 0.064561844 -0.08310571 -0.024685662 0.06888904 0.061543085 0.12902786 0.14971396
0.01986084 -0.068093196 -0.05927989 0.004623344 -0.04388078 -0.071022674 0.04419949 0.02955111
-0.03538437 0.08165183 0.18468885 0.07295438 -0.060949538 0.024267152 0.057251938 0.092942856
0.05586341 -0.03447598 0.020511098 0.052511297 0.18843947 -0.026668094 0.0810555 0.055391967
-0.009729202 0.105498806 -0.009995371 -0.03257998 -0.039248906 -0.108415805 -0.058580466 -0.0036101846
0.039125644 -0.022954525 0.031247545 0.119354025 -0.073640816 0.095997095 0.083487585 -0.09771116
0.013398442 0.033372227 0.08815842 0.017542088 -0.039189305 -0.01323703 0.075321764 0.05462095
0.053428233 -0.008391306 -0.008494728 0.004512243 0.09145536 0.016810132 0.034616582 0.07476841
-0.07208109 -0.011649269 0.031629104 0.07578986 -0.04261281 -0.021396182 -0.08708991 0.053629056
0.00046772757 0.039414447 0.0060045156 -0.017020479 -0.058630582 -0.07903946 -0.08248585 0.07027924
0.0076596886 0.061112843 0.023418106 0.07493943 0.06345457 0.051006805 0.12563106 0.047522034
-0.016463505 0.09244425 -0.043844778 -0.06737998 0.06816305 -0.04195648 -0.03614576 -0.06996172
-0.09230916 0.077235855 0.056996483 -0.10288557 -0.08304676 0.14936459 -0.04531157 0.08466657
-0.1329764 0.094926335 0.053396706 0.13714212 -0.043479312 -0.04649077 -0.03373713 0.050910216
0.11923375 -0.06995592 0.021430595 -0.067930266 0.08527086 0.0636771 0.070434175 0.013697198
-0.07190039 0.04390601 0.11009429 0.017096877 -0.05080433 0.07101592 0.0028132317 0.047931444
0.02801173 0.042130407 0.040523767 -0.07608718 0.051774595 0.07623582 -0.040554404 -0.03915255
-0.0030815601 0.005431689 0.087520584 -0.044141844 -0.06732342 0.16815843 0.031005023 -0.0049530887
0.021438133 -0.07998258 -0.052287016 0.051110607 0.06671492 0.010944727 -0.08677652 0.0915164
-0.08174668 -0.0005274611 0.06296441 0.06595241 -0.07473529 -0.017697403 0.071320966 0.044992395
0.088869736 0.017416906 0.1019203 0.11831636 0.023424067 -0.077555925 0.008472078 0.058080025
-0.029480157 -0.08436147 0.062687695 0.01418524 -0.0692278 -0.036171354 0.07106614 -0.013078459
-0.07266097 0.03705533 -0.019108832 -0.023316255 0.02176504 0.032647077 0.012038365 -0.058299392
0.14219563 0.008869991 0.0048592957 -0.03574652 0.061469544 -0.1000855 -0.07997532 0.034699865

dense_6/Tensordot/MatMul_bias f4 [100]
00000000: bb34 27bc 05a3 fabc c04f a03a a7cd 9dbc
00000010: 563d 0cbc c6c9 c1bb e136 5c3c b380 c8bc
00000020: ba38 b2bc 69b7 2ebd f867 18bc b8c2 e73b
00000030: 6be9 96bd 4e87 b13c 8585 aabc 46e4 923c
00000040: 00f4 313c cbcb afbc e34c 8cbc 6413 dbbc
00000050: 035c cdbb 3a9c b0bc 3690 49bc d05f 9c3b
00000060: d08f 833c af40 1dbc 71a9 05bd dfe7 17bd
00000070: 3ef7 ecbb 9f1a 3dbd e85c f6ba 0000 0000
00000080: 4684 1e3a 5035 24bd 83d8 d8bb d997 20bc
00000090: c2d2 7abc 4a18 2bbc 0000 0000 d17e 31bc
000000a0: 826a 06bb e6c1 c4bb 41dc 90bc 55cd 29bc
000000b0: 9d37 f2bb 90cf 04bd bb83 34bd 56cb 733d
000000c0: 377b edbc 4ac7 e23c 1fb3 28bd 7e37 1abc
000000d0: 4095 31bc 7192 05bc a3c5 73bc 5d0f c5bc
000000e0: 4956 16bd 826c b5bc 2c58 adbb 806a 8dbc
000000f0: 9632 59bd ed9e 28bd 7671 9cbc 8676 0a3d
00000100: 66b6 523c 19dd 83bc c6cc cc3c 4008 26bc
00000110: 2d24 82ba 55fb f5b8 273e 65bd 4dd6 12bc
00000120: d67e f0bb 9326 11ba 138c 11bd b98e 7b3c
00000130: 5031 37bc c8fe ae3c feb3 f6ba 356d bebc
00000140: 35db 643c 9850 7fbc 3197 0cbd 93ba 123d
00000150: 34ad 2cbd 99fa 9c3b 51e1 b3bc 55e4 eabc
00000160: e71f 53bc 27dd aebc e75c a3bc 8383 78bc
00000170: f9be 21bd 908e 12bc 7f67 afbc 7447 00bd
00000180: f24b 3ebc 0000 0000 f1ce babb cfff 953c
-0.010205443 -0.030595312 0.0012230799 -0.019263102 -0.0085595455 -0.005913946 0.0134408185 -0.024475431
-0.021755565 -0.042655382 -0.009302132 0.007072773 -0.0736874 0.021670964 -0.02081562 0.017931115
0.010861397 -0.02145948 -0.017126506 -0.026742645 -0.006267072 -0.02155887 -0.012302449 0.004772164
0.016059786 -0.009597941 -0.032632295 -0.037086364 -0.007231622 -0.046167966 -0.0018795999 0.0
0.0006046932 -0.040089905 -0.006617607 -0.009801828 -0.015309038 -0.010442803 0.0 -0.010833458
-0.002051026 -0.00600456 -0.01768315 -0.010363896 -0.0073918835 -0.03242451 -0.04407094 0.059520088
-0.028989417 0.027682919 -0.04118645 -0.009412644 -0.010838807 -0.00815259 -0.014878663 -0.024055177
-0.03670338 -0.022146467 -0.005290052 -0.017262697 -0.053026758 -0.04116719 -0.019097071 0.03380444
0.01286087 -0.016096639 0.024999987 -0.010133803 -0.0009928994 -0.000117293246 -0.055967476 -0.008962226
-0.007339339 -0.0005537059 -0.035533976 0.015353852 -0.011181191 0.021361724 -0.0018821952 -0.023245433
0.013968279 -0.01558318 -0.034323875 0.035822462 -0.042157367 0.0047906158 -0.021958025 -0.02867333
-0.012886024 -0.021345688 -0.01994176 -0.015168074 -0.039488766 -0.008945122 -0.021411655 -0.031318143
-0.011614786 0.0 -0.005700939 0.018310456

dense_6/Tensordot/Reshape_1/transpose f4 [100, 200]
00000000: 17a6 493d 73d0 afbd 0ba3 10bd e6a8 ba3d
00000010: e3f1 18bd 2d12 633d 0fac ef3d 11eb efbb
00000020: 5159 22bc f86f 3d3d 6b70 99bd 468f ba3b
00000030: 156b e93d 2635 093e a4b8 303d cb2e c7bd
00000040: 1d30 d1bd ac71 dcbd a63d 04bd b7dd 91bd
00000050: 528f 263d 803d 303c 0f23 c1bd 608e fcbc
00000060: b3bc 643b aedc 52bd d291 513d 0b81 0a3e
00000070: 2af2 823d ff45 933d 6ebd 9cbd 4649 d4bd
00000080: 58b6 9cbd 6258 a7bd 76c9 903d bb79 76bd
00000090: 5ab4 783d 44be 013e 7e10 cfbd c0d6 d3bd
000000a0: 7c05 5d3d a6b9 353d be7b d63d 48ad 773b
000000b0: 6dbe 91bd ec55 be3c 14ea 50bd 021b a7bd
000000c0: 0cff 473b ce7d a9bd 31a4 96bd 23d9 8e3d
000000d0: 4855 95bd 6c97 ecbd 48c7 203d d209 f13d
000000e0: 8ec4 07be 22aa 9a3c 16df 42bd 380f 5e3d
000000f0: 702f c1bd b8ce fb3d ae95 f63d 1e9a b93c
00000100: a51b d03c bbc1 133e dc46 e13c 0b8a 193e
00000110: 4f37 aebd 71cf cabd c0a2 debc 3560 a5bd
00000120: 077e 8fbc 2034 7c3d 04b6 d43d 89cc b33c
00000130: 9a49 c5bc 0ce2 91bc 9d84 febd c1a6 443b
00000140: b558 a83d e7c4 7f3d f247 953c d3b6 b43b
00000150: ea0c ab3d 7c82 443d 3afe dc3d bcb7 9c3c
00000160: e29a 81bd 36ec 4bba 8252 ab3d 121f 423b
00000170: 828b 03bc 24f0 6fbd 9562 a13d 9cf4 073e
00000180: 3966 113d 2ee7 703d a38e ea3d fce4 d1bc
00000190: b029 ce3d 2c09 10be 55bc 7c3d 6ac8 053e
000001a0: 22ca b7bd 9973 1cbd a42f 8f3d c0ea 92bd
000001b0: 58c1 ab3d 9821 0a3d 309d 883a 0369 ebbd
000001c0: c3e4 153d 8021 0a3d 5ee2 abbd 2924 7c3d
000001d0: 8bd1 d9bd 0c5d 283d 3521 d7bd 1f92 d1bd
000001e0: 9027 18be d047 d4bd 1a24 843d 005c 93bc
000001f0: b94a c83d 97b8 9e3d 59a4 023d 8e81 bf3c
00000200: 8eeb 44bd 0a39 65bd 1b39 fb3c 6927 8abc
00000210: a41f 853d 5b69 823c eb8a e73d 375e 05be
00000220: 4cfe 01be 0240 a73c f300 603d 73c2 b23d
00000230: 16e2 043e 50a7 453d a925 d13d abdc 83bd
00000240: 3732 2abd a003 d8bd 27b8 d0bd e941 4fbd
00000250: 9b1f d03d f9be 0a3e 43a0 ecbc 58b5 6b3d
00000260: 1115 813c 8d83 91bd a375 04be d5d5 8ebc
00000270: 1114 be3d 608a 6fbd 6f8b 4abd 472f 35bd
00000280: 230c 713d 393a bf3d f8fe f1bd d2a3 eebd
00000290: 2c71 77bd 047f 1f3e 9571 f0bc 3fcc 7d3c
000002a0: 30ff 8dbd 6490 bbbd fdd2 a9bd 998f ec3d
000002b0: 064f d4bd 02c9 1d3d 725e 6ebc ec0b 873d
000002c0: cd3e 06be d7db b73c 8fb0 003e 600d b53c
000002d0: f9d9 a03d e695 7ebd bb69 f83c 80a5 943d
000002e0: a714 093d d5c6 a43d a6b8 cf3c a306 09bd
000002f0: af83 923d 7383 053e 041f e73d c76a f2bc
00000300: 9eb2 17be eb6d f53d 5ed1 c83d 494b 9fbc
00000310: 9939 b8bd 96e0 98bc beba d0bd 1081 d8bd
00000320: 38b9 dbbd 9fa3 463d 66c5 e83d ea1c 6f3d
00000330: 1afb ef3d 9d0c f63d 1632 b4be 9aa4 eb3d
00000340: 774b 8c3d 3418 0dbe 3058 1a3d df70 96bd
00000350: 341a 2cbd 7ed8 88bd 86cd ce3d d5ca 9a3d
00000360: cbd8 fe3d 6e44 6ebd e18b 39be f978 2c3d
00000370: 2b88 62be 2094 8a3c f8fd ddbd 8bd1 98bd
00000380: d3e2 23bd 7a3b 183c 1001 a0bd 1ea6 093c
00000390: bbe4 a9bd 086e ba3c 768b 033e 7d08 8cbd
000003a0: fa2c c93d d833 07be fc3b e0bb 02d0 9f3d
000003b0: f7f8 0ebe f03d 163d a05e 333d 8927 043e
000003c0: 6377 84be 1887 a53d a7ad e93d 00ab cbbd
000003d0: 815e 0dbe 38a9 673d b5f1 b0bd 2a58 d03d
000003e0: 8094 8d3d 1252 c1bd eba4 f5bd 4aba 5ebd
000003f0: 7f51 3cbd 131b febb d445 8ebd df18 9ebd
0.04923066 -0.085846804 -0.03531174 0.09114246 -0.037340056 0.055437256 0.117027394 -0.0073217233
-0.00990899 0.04624936 -0.07492145 0.005693349 0.113973774 0.13399181 0.043144837 -0.09725722
-0.10214255 -0.10763869 -0.032285355 -0.07122367 0.040664025 0.01075685 -0.09430515 -0.030829608
0.0034902513 -0.051479988 0.051164456 0.13525788 0.063938454 0.07191085 -0.07653318 -0.10365538
-0.07651967 -0.081711546 0.070696756 -0.060174685 0.06071887 0.12670237 -0.101105675 -0.10343695
0.05396031 0.0443665 0.10472821 0.0037792493 -0.07116399 0.02323433 -0.051004484 -0.08159448
0.003051701 -0.082759485 -0.07355536 0.06975009 -0.07291657 -0.11552319 0.03925255 0.11769451
-0.13258573 0.018879954 -0.047576033 0.054213732 -0.09432876 0.12295288 0.12040268 0.022656497
0.025403807 0.14429371 0.027499609 0.14994065 -0.08506643 -0.099028476 -0.027177215 -0.08074991
-0.01751615 0.061573148 0.10386279 0.021948116 -0.024082948 -0.017807983 -0.12427638 0.003000662
0.082200445 0.06244364 0.018222783 0.0055149584 0.083520725 0.047976002 0.10790677 0.01913058
-0.0632837 -0.00077790336 0.083653465 0.002962057 -0.008028867 -0.058578625 0.07880131 0.13276905
0.035497878 0.05881422 0.11452987 -0.025621884 0.10066545 -0.14065999 0.061703045 0.13064733
-0.08974101 -0.03819618 0.069915086 -0.07173681 0.08386487 0.033723444 0.0010422822 -0.11494639
0.036595117 0.033723354 -0.083927855 0.061557923 -0.1063567 0.04110436 -0.105043806 -0.102329485
-0.14858842 -0.1036526 0.06452198 -0.017988205 0.09779877 0.077500515 0.031895015 0.023377206
-0.048076205 -0.0559626 0.030666878 -0.016864495 0.065001756 0.015919378 0.113057934 -0.13024221
-0.12694663 0.020416263 0.054688405 0.087284945 0.1297687 0.048255265 0.10212261 -0.064385734
-0.041551795 -0.105475664 -0.10191374 -0.050599966 0.10162278 0.13549413 -0.028885012 0.05754599
0.015757116 -0.071051694 -0.129355 -0.017435947 0.09281171 -0.058481574 -0.04944938 -0.04423454
0.058849465 0.09337277 -0.118162096 -0.1165234 -0.060410663 0.15575796 -0.029351035 0.015490591
-0.06933439 -0.091584 -0.08292196 0.115508266 -0.10366635 0.038521774 -0.014548885 0.06594071
-0.13109894 0.022443695 0.12567352 0.022101104 0.07854075 -0.062154673 0.030323854 0.07258129
0.03346696 0.08045737 0.025356602 -0.033453595 0.07154023 0.13038425 0.11285213 -0.029591931
-0.14814231 0.11983856 0.098055586 -0.019445078 -0.08995361 -0.018661778 -0.10191868 -0.10571492
-0.10728687 0.048495885 0.11365776 0.058377184 0.11717816 0.120141245 -0.35194463 0.11506005
0.06850331 -0.13778764 0.03768176 -0.07345747 -0.042017177 -0.066819176 0.10097794 0.075582184
0.12443694 -0.05817073 -0.18119766 0.042107556 -0.22122256 0.016916335 -0.10839456 -0.07461842
-0.04001124 0.009291524 -0.07812703 0.008401422 -0.0829558 0.022757545 0.12846169 -0.068375565
0.09823032 -0.1320337 -0.006843088 0.07803346 -0.1396216 0.036680162 0.043791413 0.12905706
-0.25872335 0.08082408 0.11410075 -0.09944725 -0.13805582 0.056557864 -0.08639852 0.10173066
0.0691309 -0.09439482 -0.11994346 -0.054376878 -0.04597616 -0.0077546923 -0.069469124 -0.077195875

dense_7/MatMul_bias f4 [4]
00000000: e7cd c13c ed78 39bc a008 793b 471c 7cbc
0.023657752 -0.011320335 0.0037999526 -0.015387601

dense_7/kernel/transpose f4 [4, 7500]
00000000: 8c14 443d ed01 7b3d 0932 4f3d 65ff 743c
00000010: ac99 9f3c 5e48 edbb 5904 833b 16c2 ef3d
00000020: 98d4 ab3c 1777 a8bd a806 393c 8604 c13c
00000030: d59b 46bd 5cb5 593c 9885 d5bc bdac 813e
00000040: 64a0 f7bb c404 ad3d 8ce2 c4bc 0f4e 1e3d
00000050: a513 58bc d872 553c f7cc 40bc 4ccd 353e
00000060: 8755 c13d 4c6e b7bc bdd5 ac3d 544c 1fbe
00000070: 5cff 5b3d a980 74bd 6bd9 523d 030a c43c
00000080: 0a39 633e d2f3 d33d 11dc 4f3d 4bb5 91bc
00000090: af0e 453e f19c 063d f0d4 55bb e530 db3b
000000a0: 7619 d13c ceca d93a 09dd 363c 174f b6bc
000000b0: f424 d3bc 8e91 88bd d4cc 13be 098f b63d
000000c0: 9e52 633c c80f 813d adb8 81be 0e37 99bc
000000d0: bca5 503d 58ab a3bc f052 c83b 51dd 86bc
000000e0: ef52 1cbd ac1c 7abc 76f4 123d f8a4 b3bd
000000f0: 75c9 bcbd 3648 dabd 27a3 ee3c 28af 9f3d
00000100: 6c02 0bbd 88e0 063d 7605 f03d 6e47 16bb
00000110: db4b e2bc cd54 8a3d b129 933d 6127 bc3d
00000120: 7495 913d 325f 4d3c edd0 e03c ed41 7a3d
00000130: 67fa 0e3d 215f 12bb ca98 65bc 3e8e a03a
00000140: a283 1b3d 952a d1bb b8fd 51bc 1b40 8c3d
00000150: 233b 96bd f415 393c fe24 7c3c 0b5c aebc
00000160: 252a d23d 78f2 bc3d e708 903d 3d61 213d
00000170: 1437 cbbc 09ee 1cbd 15f0 8fbc b36c 993d
00000180: 7ba0 873c e629 93bc 8737 24bc 7d16 5f3e
00000190: 6cbc 0d3d 55ec 503d 9377 963d 3386 d63c
000001a0: a997 f3bc 22e3 04bd 3927 3e3c ce33 ee3d
000001b0: 551c aa3c a5c4 92bd f07d 79bb e2af 9e3c
000001c0: 6913 59bd b4de 623b 2799 8bbc e769 543e
000001d0: 0552 f4ba cc8d cb3d 2214 9839 c8fa fb3c
000001e0: 9c6e 97bc d042 82bb 066e 583c 0e1f df3d
000001f0: 8028 503d 656f 153c ef71 f03c 8264 2dbe
00000200: 631e 723d ab1a f8bc ebbd 833d f3f5 91bc
00000210: b65e 3f3e 7ae3 ba3d c014 8f3d e8c7 e7bb
00000220: 9fb9 1a3e 0804 bc3c 1076 15bc e1e0 0e3b
00000230: afdb 133c 5c25 573c 9a2b 85bb 4505 1ebd
00000240: 145c 10bc 664d bebd b261 02be 90a9 893d
00000250: d69c 083d 30b6 953d 92b7 81be 30fc 94bb
00000260: f8ab 8a3d 09c0 96bc 68ea d2b9 a601 2dbc
00000270: fbd6 b0bb c458 cd3b 386e 223d cc11 84bd
00000280: c936 efbd cac2 83bd 3de1 8c3d 1dc0 633d
00000290: 87dd dfbc bcfa 013c 8bf3 173e 975e 8e3c
000002a0: 2e30 a13a 0f05 de3c 8082 8c3d a188 b03d
000002b0: 1c5f a53d 0ebb 1fbd bc80 0a3d eae2 9d3c
000002c0: 0e0d 363d ba4a f1bb 2023 92ba e033 5f3c
000002d0: 5c84 243c 6b06 82bc c987 19bd d3ec a53d
000002e0: e514 5cbd 61ac f43c f2b9 0b3d fc02 283c
000002f0: 616c 953d 8ce3 083d e020 713d 4367 213d
00000300: 9017 04bd 0dbf 83bc 1ece 0bbc 255b 883c
00000310: 37ef 0d3d 48f9 bebb 924d 613c 86a6 593e
00000320: 1fe1 2cbc 8a3d b03c 482f 653d f5e9 703c
00000330: 9354 aa3c 2d2b a7bb 41d6 d63c a770 d43d
00000340: 46b2 a33c 245b bcbd 819e 14bb c8a9 40bc
00000350: 27dd b1bd 7d5d c73c afc9 e53c 9196 3e3e
00000360: 0587 253d 3a61 dd3d 4d8e 17bc c6e9 9a3d
00000370: d1f4 483b 5ebb fb3b a7d7 4b3b 4245 d23d
00000380: 7e59 b13d 7416 9a3a 901c 603d 9ca1 eabd
00000390: 5c75 863d 4aa0 95bd f13b ba3c c7ce cd3c
000003a0: 433f 453e a6a9 9d3d 4096 2b3d 94ef b63c
000003b0: 25e5 ff3d ba41 1c3d 3960 923c 1df5 9e3b
000003c0: f446 423d d584 e1bc 5ec5 913c 14c3 10bd
000003d0: 52b1 7d3c fab6 9ebd 9d53 d0bd 5677 ab3d
000003e0: e5cd 223c 26c6 963d a06c 69be fc4a 9fbb
000003f0: ba6f d93c 033b cdbb a163 3ebc 47d4 5139
0.047871158 0.061281133 0.050584827 0.014953469 0.019482456 -0.007241293 0.003998321 0.11706941
0.020975396 -0.082258396 0.011293091 0.023561727 -0.048488457 0.013287868 -0.026064679 0.253271
-0.007556962 0.084481746 -0.024033807 0.03864866 -0.013188277 0.013027869 -0.011767617 0.17754096
0.09440141 -0.02239146 0.08439205 -0.1555646 0.053710327 -0.059693012 0.051476877 0.023930555
0.22189727 0.103492394 0.05074698 -0.017786643 0.19243883 0.032864515 -0.0032628141 0.0066891783
0.025524836 0.0016616227 0.011161097 -0.02225451 -0.025774457 -0.06668387 -0.14433604 0.089140005
0.013874678 0.06301838 -0.2533621 -0.01870301 0.050939307 -0.019979164 0.0061134025 -0.016462954
-0.03816503 -0.015265625 0.035877667 -0.087717 -0.092181124 -0.106583044 0.029130531 0.0779708
-0.033937857 0.032928973 0.117197916 -0.002293076 -0.027624061 0.06754456 0.071856864 0.091871984
0.07108584 0.012534903 0.027443374 0.061098028 0.03490677 -0.0022334533 -0.0140134785 0.0012249423
0.03796733 -0.00638325 -0.012816839 0.06848165 -0.07335498 0.011296738 0.015389679 -0.021284124
0.10261945 0.09225935 0.07032948 0.039399374 -0.024806537 -0.038312946 -0.017570535 0.07491436
0.016556015 -0.017964315 -0.010023004 0.21785922 0.03460352 0.051006634 0.07347026 0.026187038
-0.029735403 -0.032443173 0.011606031 0.11630975 0.020765463 -0.07166413 -0.003806945 0.019370977
-0.052997027 0.0034617605 -0.017040802 0.20743524 -0.0018640166 0.09939155 0.000290067 0.03075923
-0.01848536 -0.00397525 0.013209825 0.10894595 0.050819874 0.009120797 0.029351203 -0.16932872
0.05911101 -0.030286154 0.06432708 -0.017817473 0.18688473 0.09125419 0.069863796 -0.007073391
0.15109871 0.022951141 -0.009122387 0.0021801519 0.009024545 0.013131466 -0.0040640356 -0.038579244
-0.008811016 -0.09292106 -0.1273258 0.067217946 0.033352695 0.0731014 -0.25335366 -0.0045466647
0.06771082 -0.018402116 -0.00040228968 -0.010559475 -0.0053967214 0.006266685 0.039655894 -0.06448707
-0.11680371 -0.064336374 0.06878898 0.055603135 -0.027327312 0.007933315 0.14838998 0.017379088
0.0012297684 0.027102022 0.068608284 0.0861981 0.08074781 -0.03899675 0.033814177 0.01927324
0.044446044 -0.0073636444 -0.0011149384 0.013623208 0.010041323 -0.015872201 -0.03748301 0.08101811
-0.053730864 0.029867353 0.03411288 0.010254618 0.07296062 0.03342013 0.058869243 0.03940512
-0.032249033 -0.016082311 -0.008533029 0.016645024 0.03465196 -0.0058280565 0.013751404 0.2125493
-0.01055172 0.02151372 0.055953294 0.014704217 0.020792281 -0.0051015825 0.026225211 0.10373049
0.019982468 -0.09197071 -0.0022677484 -0.011759229 -0.086847596 0.02433657 0.028050272 0.18612124
0.040411968 0.1080956 -0.009250236 0.0756412 0.00306635 0.007682248 0.003110388 0.10267116
0.086596474 0.0011755959 0.05471474 -0.11456606 0.06565353 -0.07305963 0.02273366 0.025123013
0.19262414 0.076983735 0.041891336 0.022331037 0.12494878 0.03814862 0.017868148 0.004850997
0.047430947 -0.02752916 0.017794307 -0.03534229 0.015484171 -0.07749744 -0.10172198 0.08372371
0.009936784 0.073620126 -0.22795343 -0.0048612338 0.026542533 -0.0062631383 -0.011620433 0.00020010873
