Examples/BasicExample/Models/nine_gestures_model.tflite (tflite, 762064 bytes, 8 tensors)

dense_4/Tensordot/MatMul_bias f4 [500]
000000 ab a9 6a bd 00 00 00 00 00 00 00 00 00 00 00 00
       -0.057290714 0.0 0.0 0.0
000010 5d 1a 2e bd a1 91 92 3c cc 4d 08 bd 21 3b c3 3b
       -0.04250561 0.017891707 -0.033277318 0.0059579764
000020 98 a8 71 bd 7e 96 0e bc 69 e2 9f bc 2a b9 02 bd
       -0.058998674 -0.008702872 -0.01951714 -0.031914867
000030 e3 01 8a 3b 91 32 71 3b e7 7e 91 bd 05 5b 1a 3d
       0.0042116507 0.0036803822 -0.07104283 0.03768446
000040 20 51 3b 3d 8e 43 71 3d 19 d0 76 bd 00 00 00 00
       0.045731664 0.058902316 -0.06025705 0.0
000050 27 52 51 3c 00 00 00 00 ac fc cf bd 51 ad a8 bb
       0.012775934 0.0 -0.10155615 -0.005147614
000060 00 00 00 00 7b 57 06 3d 87 19 c7 bc 2d d2 0f 3c
       0.0 0.03279827 -0.024304165 0.008778137
000070 04 0c 43 bd 00 00 00 00 00 00 00 00 00 00 00 00
       -0.04761888 0.0 0.0 0.0
000080 f7 8b 8e bd ac 46 8b bc 81 5b 1f 3d 00 00 00 00
       -0.0696029 -0.017001472 0.038905624 0.0
000090 20 ea 74 3d 00 00 00 00 5e d9 82 bc 27 01 aa bc
       0.05979359 0.0 -0.01597279 -0.020752503
0000a0 fb 51 bd 3c 63 1c c4 3d 1e 44 47 3d 00 00 00 00
       0.02311038 0.09575727 0.048648946 0.0
0000b0 00 00 00 00 fd fc 97 3c 06 a3 ae 3d 11 b5 30 3d
       0.0 0.018553251 0.08527188 0.04314143
0000c0 44 e0 b2 bb 20 7f 3e 3d 00 00 00 00 c2 b3 67 3c
       -0.0054588635 0.046507955 0.0 0.014141979
0000d0 00 00 00 00 10 94 9d 3d 00 00 00 00 4b 19 0e 3c
       0.0 0.07694256 0.0 0.0086730225
0000e0 49 4e cd bd a9 df 25 bd 22 48 aa 3c c8 dd b5 3b
       -0.10024697 -0.040496502 0.020786349 0.00555012
0000f0 8a 5a 29 bd 2e 2b 0a bc b9 96 28 3d 0f d4 28 3d
       -0.04134611 -0.008433146 0.041159365 0.04121786
000100 7b 9b 81 bd 00 00 00 00 84 e6 b5 3c c8 7f 7d bc
       -0.06328484 0.0 0.022204645 -0.01547236
000110 8a 2f a7 bd 00 00 00 00 f1 44 24 bc 43 50 83 bb
       -0.08163364 0.0 -0.010026203 -0.0040073707
000120 00 00 00 00 00 00 00 00 8f c1 22 bd 78 bf 5d bc
       0.0 0.0 -0.039735373 -0.013534419
000130 c4 99 db 3c 32 59 81 3c d1 74 d9 ba cd 59 4b bd
       0.02680672 0.015789602 -0.00165906 -0.049646188
000140 91 4a be 3c 1e 77 cc 3b c4 04 9e 3c 9a 9a 7e bd
       0.023228915 0.006239786 0.019289382 -0.06215916
000150 e7 98 81 bd 08 b6 48 bc 01 68 10 bd a9 00 56 bd
       -0.06327992 -0.012250431 -0.035255436 -0.052246723
000160 12 5f 0e bd 5d 21 a1 bd 12 71 4a 3d ba db 96 bd
       -0.034758635 -0.07867692 0.04942424 -0.07366128
000170 71 5e af bd 22 80 1f bd 0b 16 83 3b 84 d6 3c 3d
       -0.08562935 -0.038940556 0.0040004305 0.046103016
000180 bf 8b 32 3d 71 bd b2 bd 76 ea c9 3c 5b 18 97 3c
       0.043590304 -0.08727539 0.024647932 0.01844423
000190 e3 aa 08 3d 44 72 83 bc d5 b5 82 bd 26 98 0e bc
       0.033366095 -0.016045697 -0.06382338 -0.008703267
0001a0 2d a4 0e bd df 0b 4a 3d 00 00 00 00 66 e5 64 bd
       -0.03482454 0.049327727 0.0 -0.055882834
0001b0 88 0c 11 bc 00 00 00 00 00 00 00 00 72 54 5e bc
       -0.008853085 0.0 0.0 -0.013569938
0001c0 80 d5 a9 3c 62 ec 94 3b 2b d6 81 bb 00 00 00 00
       0.020731688 0.0045447806 -0.0039622984 0.0
0001d0 8f d6 d6 bc 2c 27 88 3d 4f c3 ca 3c 62 a5 37 bd
       -0.026225356 0.066480964 0.024751334 -0.044835456
0001e0 00 00 00 00 32 d0 76 3c 1c 89 10 bc 00 00 00 00
       0.0 0.015064286 -0.008821752 0.0
0001f0 00 00 00 00 28 94 69 bc e1 fa 52 3d 8a 3d d5 3c
       0.0 -0.014256515 0.051508788 0.02603032
000200 00 00 00 00 00 00 00 00 60 57 b9 3c 00 00 00 00
       0.0 0.0 0.022624671 0.0
000210 4b ab 96 3d 00 00 00 00 d2 62 6e bc 1c 37 a0 bd
       0.0735689 0.0 -0.014549928 -0.07823011
000220 2a 98 fc 3c 00 00 00 00 00 00 00 00 00 00 00 00
       0.030834276 0.0 0.0 0.0
000230 92 d6 3a 3d d3 b6 7f 3d 07 75 46 bd d5 08 9b bd
       0.045614786 0.062430214 -0.04845145 -0.07570044
000240 7b 6a 83 bd b1 29 4c 3d 00 00 00 00 00 00 00 00
       -0.06416794 0.049844448 0.0 0.0
000250 2e 91 3a bd 34 89 42 3d c8 b0 58 bd bc 65 33 3d
       -0.04554861 0.04749413 -0.052902967 0.043798193
000260 cf 8f 96 3d 00 00 00 00 00 00 00 00 95 0a fe 3b
       0.07351648 0.0 0.0 0.0077527263
000270 1f 8a 20 3d 00 00 00 00 ca fc cd bc fa 56 c0 bd
       0.039194223 0.0 -0.025144953 -0.093915895
000280 e9 fc 15 bc 84 cf a0 3d dc f0 15 3d 40 83 5f 3d
       -0.009154537 0.078520805 0.036606655 0.05456853
000290 00 00 00 00 52 6c ad 3d 55 57 4e 3d ce af aa bd
       0.0 0.08467926 0.050376255 -0.08334313
0002a0 df be 96 bd 8d d7 24 3d 06 98 6b 3d b6 8b e4 bc
       -0.073606245 0.040244628 0.057518028 -0.02789865
0002b0 dd 40 0a bd 65 90 ae bc 1f 9a 25 3d 77 ce d9 bd
       -0.033753265 -0.021309087 0.040430184 -0.10635083
0002c0 42 b1 84 3c 6a aa 88 3d 1c 97 62 3c 90 ed 86 bc
       0.016197804 0.06673129 0.013829973 -0.0164707
0002d0 00 00 00 00 54 5e c1 bc 2b 9f 96 bd 34 6b 81 bc
       0.0 -0.02360455 -0.07354578 -0.015798189
0002e0 9d 1c 01 3c cb 18 5d 3d bc cf e1 3c ba a0 a2 bd
       0.007880357 0.053978723 0.027564876 -0.079408124
0002f0 fa c8 20 3b d4 af 78 3d 27 35 aa bb 00 00 00 00
       0.0024533854 0.060714558 -0.0051943245 0.0
000300 38 f2 89 bd 98 ac d4 bb 6a 51 6a 3c 7a f6 e1 bb
       -0.06735653 -0.0064903013 0.014301637 -0.0068958374
000310 07 b3 02 3c 22 70 11 3d 91 30 83 bd 17 07 a8 3c
       0.007977254 0.03550733 -0.06405748 0.020511193
000320 e1 23 28 bd 68 d8 c1 3a 00 00 00 00 d2 78 0f bc
       -0.04104984 0.0014789226 0.0 -0.008756833
000330 00 00 00 00 10 98 d4 3a 0b 64 8e bd 7f f4 8f bd
       0.0 0.0016219635 -0.069526754 -0.07029056
000340 5d 7e b0 bb 00 00 00 00 a1 53 e1 bc 6d cf 26 3d
       -0.0053861574 0.0 -0.027505698 0.04072516
000350 d9 a3 86 bc 75 46 8a bd 00 00 00 00 00 00 00 00
       -0.01643555 -0.0675172 0.0 0.0
000360 1b a7 de bc 82 f5 5a bd 00 00 00 00 47 a9 8d 3d
       -0.027179291 -0.05345679 0.0 0.06917053
000370 00 00 00 00 18 95 17 bc 4e af 87 bc e2 95 1f 3d
       0.0 -0.009251855 -0.016563084 0.0389613
000380 a0 1c 48 3b 00 00 00 00 eb 07 02 3d ea f3 a4 3d
       0.003053464 0.0 0.031745832 0.080543354
000390 b8 be a9 bb bf 4c 9c bb da da 26 bc 47 b7 98 bd
       -0.005180206 -0.004769891 -0.010184014 -0.074568324
0003a0 81 51 ec bc 6b eb f2 bb 26 ec 67 bd 90 34 fa 3a
       -0.028847458 -0.007413318 -0.056621693 0.0019089151
0003b0 00 00 00 00 00 00 00 00 00 00 00 00 b7 f1 0e 3d
       0.0 0.0 0.0 0.034898486
0003c0 9a f7 b1 bd fd f4 20 bd 59 c2 cf bd 00 00 00 00
       -0.086898044 -0.03929614 -0.10144491 0.0
0003d0 c8 6d d7 3c ed 63 c7 bd 43 03 b0 bd b1 3e cd bb
       0.026297465 -0.09735856 -0.08594372 -0.006263577
0003e0 2f 4c f5 bb c7 00 0b bd 8b 99 b8 3c dd da 7e bc
       -0.0074858884 -0.03393629 0.022534152 -0.015555111
0003f0 78 83 02 3d 07 1d 94 bc c7 44 90 bd 00 00 00 00
       0.03186366 -0.018080248 -0.07044368 0.0

dense_4/Tensordot/Reshape_1/transpose f4 [500, 3]
000000 62 5a 8d 3d 1f 50 21 bd 43 a2 fc 3d f0 ce b2 bb
       0.06902005 -0.03938305 0.123356365 -0.005456798
000010 af e0 bf bd 84 b2 9b bd a4 5e bc bd 4e ca 63 3d
       -0.09369027 -0.076024085 -0.09197739 0.055612855
000020 73 ca d9 bd bc 97 5c bd 5a 78 bc bd ab 0e 75 bd
       -0.10634317 -0.053855643 -0.09202643 -0.05982844
000030 0d 07 8c 3d d9 cc ec bc e9 f0 ca 3c ce b0 04 be
       0.06837282 -0.028906273 0.024773078 -0.1295807
000040 34 61 a3 3d 49 fc 80 3d eb 60 97 3b 50 43 07 bd
       0.079775244 0.062981196 0.004619708 -0.03302318
000050 40 b0 07 3e 02 cf 11 be cf 0f 20 3b 04 c6 0c 3e
       0.13250828 -0.14239123 0.0024423485 0.13747412
000060 99 a6 00 3e 06 2e 29 be f1 58 ff 3d cf 1f 2a 3e
       0.12563552 -0.16521463 0.12468136 0.16613697
000070 2a e9 ca bd 46 29 87 3b b6 18 1e 3d 55 cc 2c be
       -0.09907754 0.004124793 0.038597785 -0.16874821
000080 7a 17 1e 3e a9 5e d0 3d 5f dd bf 3d 8d f6 d8 bd
       0.15438643 0.10174305 0.09368395 -0.10593901
000090 4a 64 b5 3d 8f 88 a4 3d bb e0 0b be 7e ce cf 3d
       0.08857019 0.08033859 -0.13659947 0.10146807
0000a0 5a 33 dd 3d d9 fe 17 be 70 42 be 3c a0 cd 56 3d
       0.1080081 -0.1484331 0.02322504 0.052442193
0000b0 83 13 96 3d 36 35 07 3d e9 74 b2 3d 06 b5 11 be
       0.0732794 0.03300973 0.08713705 -0.14229211
0000c0 76 bd b4 bd 0d 7b 2e be d2 64 f7 3d 50 44 b9 3d
       -0.08825199 -0.17039128 0.12079777 0.09046233
0000d0 08 4c cb bd e7 c5 ec bd 45 9a f0 3d bb e1 d3 bc
       -0.09926611 -0.115611844 0.117481746 -0.025864473
0000e0 74 20 51 3d 60 e1 75 bd 8a f1 aa bd 5b e4 ce bd
       0.05105634 -0.060029387 -0.08346851 -0.10102149
0000f0 10 30 d9 3d d5 ea c5 3d 44 26 2c be 26 1e 12 bd
       0.1060487 0.09663931 -0.16811472 -0.035673283
000100 ae 27 44 bd d4 40 e8 bc 18 0c 9b 3d 4c fb dc 3d
       -0.047889404 -0.028351225 0.07570666 0.107901186
000110 bc 5b f8 3d b5 8b f9 3d fa 7d 50 be 5d c0 01 3d
       0.12126872 0.1218485 -0.20360556 0.031677593
000120 f1 94 c2 bd 12 03 90 bd d0 91 0d bd e3 d0 bc 3c
       -0.095010646 -0.070318356 -0.034562886 0.023048824
000130 1e 60 f8 3d cc 33 17 be 90 7a 0e 3e 87 60 83 3c
       0.12127708 -0.14765853 0.13913941 0.016037239
000140 3e 29 db bd 04 20 0c 3e a0 84 17 be 0c 65 50 bd
       -0.10701226 0.13684088 -0.14796686 -0.050877616
000150 0c 8d a6 3d 86 df 10 3e 84 14 51 bd 25 fa 95 bd
       0.08132371 0.14147767 -0.051044956 -0.07323102
000160 70 08 4e bc 60 ba 4e bc f0 d0 d2 bd 82 89 33 3d
       -0.012575254 -0.012617677 -0.10293758 0.04383231
000170 48 02 93 bd c3 d0 78 bd e0 86 8a bd a0 d6 b5 bc
       -0.071781695 -0.060745966 -0.067640066 -0.022197068
000180 44 a9 8c 3c ff 92 53 3d 69 84 92 3d 08 a4 06 3d
       0.017170556 0.05165386 0.071541615 0.032871276
000190 b7 f5 a7 bd dd f0 9a bc 09 81 dc 3d 55 2f 41 be
       -0.08201163 -0.01891368 0.10766799 -0.18865712
0001a0 77 03 36 bd 00 94 f4 b9 74 21 92 bc bc 80 e0 bc
       -0.044436898 -0.00046649575 -0.017838217 -0.027405135
0001b0 0f 94 14 be d1 b5 d0 3c 6a 65 42 3d 6f 36 af bd
       -0.14509605 0.025477322 0.047459997 -0.08555304
0001c0 80 cf c5 bb 1a d5 94 bd cd 43 8a 3c e9 cb b4 bb
       -0.006036699 -0.072672084 0.016878033 -0.005517472
0001d0 67 f5 ce bd f9 37 00 3e 15 79 26 3c 92 61 40 bd
       -0.101054005 0.12521352 0.010160704 -0.04696805
0001e0 de 25 87 bd 06 39 3e 3e 3e 41 ae bd 10 8f ee bd
       -0.065990195 0.1857644 -0.08508538 -0.11648381
0001f0 f5 02 da bd 31 81 9a 3d 55 eb 12 be 9d e1 bb 3d
       -0.10645095 0.075441726 -0.14347585 0.09173892
000200 cf 00 3b 3c d3 fa 3f bd 68 42 bb bd 80 e2 40 bb
       0.011413767 -0.046870064 -0.09143525 -0.002943188
000210 04 2c db bc 76 71 9a bd 80 b6 be bc 0b 76 03 3e
       -0.026754387 -0.07541172 -0.023280382 0.12837999
000220 76 72 0e be 2c 62 8e bd ee af de bd 4e a7 cd bd
       -0.13910851 -0.069523185 -0.108734 -0.100416765
000230 3b 09 a8 3d 72 e0 a5 bd 91 55 1f 3e 1a 76 b2 bd
       0.082048856 -0.0809945 0.15559985 -0.08713932
000240 36 e3 08 3e 05 d0 12 3e 41 65 1e be a7 39 22 be
       0.13367924 0.14337166 -0.15468313 -0.15842305
000250 22 bc 8e 3b 9d 44 a6 3d 52 1f 39 bd a4 89 cd bc
       0.0043559233 0.08118556 -0.045195885 -0.025090046
000260 0f 0f c0 bd 68 60 15 bd 8d e0 07 be 22 55 01 3e
       -0.09377872 -0.036468893 -0.13269253 0.12630132
000270 a0 4a 65 bb 9a 00 d9 bd c4 24 98 3c a8 04 ef bd
       -0.0034987107 -0.10595818 0.018572219 -0.1167081
000280 42 6e a5 bd 8b d5 ac 3d f9 6a ba bd 40 ac 90 bb
       -0.08077671 0.084391676 -0.09102435 -0.004415065
000290 13 f1 57 bd 19 7d d3 bd 23 44 0a 3e f7 a4 79 3c
       -0.05272014 -0.10326595 0.13502555 0.015237085
0002a0 47 b7 c2 3d 58 8b c6 3c 06 a2 f5 3d 41 a4 3f bd
       0.09507614 0.024236366 0.11993794 -0.046787504
0002b0 53 1d d3 3d 74 d8 5d 3d b6 54 bc ba e9 11 32 be
       0.103083275 0.054161504 -0.0014368508 -0.17389645
0002c0 0f 1c e8 3d 58 51 91 3d 4a d6 5b be ed ac bf 3d
       0.11333477 0.07095593 -0.21468464 0.09359155
0002d0 de 49 51 bd 32 6b 3c 3e fd 55 fc 3c 73 3c 86 bd
       -0.051095836 0.18400267 0.030802721 -0.065544985
0002e0 37 80 4d 3c 36 e0 a4 3c 5b 4a 9a bd 29 ba 2a be
       0.012542776 0.020126443 -0.075337134 -0.16672577
0002f0 cc 09 bc 3d ae c1 b0 bd f0 1f 1d 3e ce 96 a2 bd
       0.09181556 -0.086306915 0.15344214 -0.0793892
000300 98 3d 0a 3e 38 30 f1 bd b7 45 07 3e 00 b0 a4 b9
       0.13500059 -0.11776775 0.13210188 -0.00031411648
000310 ea 7d a2 bd 5b 48 74 bd fd f9 93 bd 40 ce b2 bd
       -0.079341725 -0.059639316 -0.07225416 -0.08730745
000320 ce 7a 89 3d 3c 5b 05 3e 31 d0 64 be 1b 00 89 3d
       0.06712876 0.13023084 -0.22345044 0.06689473
000330 18 99 00 3e 06 1a 01 3e 1a 01 81 bc 7e 28 25 bd
       0.125584 0.12607583 -0.015747596 -0.04032182
000340 b8 79 c9 bd af e8 a9 bd 00 a5 da bc a6 45 f7 bc
       -0.09837669 -0.08296334 -0.026690006 -0.030184578
000350 f1 1b 53 3c 19 af ae bd 8c e1 7d 3d 5b 1c e1 bc
       0.01288508 -0.08529491 0.061982676 -0.027479341
000360 80 d4 9e bd 93 68 8e bd 20 97 b9 bc d0 4b d2 bd
       -0.07755375 -0.0695354 -0.02265507 -0.10268366
000370 70 5e 14 bd a8 bb 24 3c 3d 4a d6 3d 41 77 ad bb
       -0.036222875 0.010054506 0.104633786 -0.005293757
000380 5a d1 37 bd dd 07 8b bd 5b 1d 02 3e e0 8a 14 3c
       -0.044877388 -0.06788609 0.1270651 0.0090663135
000390 57 85 0a 3e 99 4a fd bc 74 a3 15 be 06 3a 09 3e
       0.13527428 -0.03091936 -0.14613134 0.1340104
0003a0 26 e7 52 be a0 98 9e bc 1f 43 fe 3d 19 98 81 3d
       -0.20595989 -0.019359887 0.12415146 0.063278385
0003b0 4a bf 16 be 1d 49 e6 3d 4c d0 3e be 99 a9 bc 3d
       -0.14721408 0.11244414 -0.18634146 0.09212036
0003c0 5c fb ed 3d a4 ed 28 be 1b e5 44 bd 9b 66 cc bd
       0.116202086 -0.16496903 -0.048070055 -0.09980508
0003d0 ed ce 0b bc b9 73 11 3e 25 e7 b3 3d 34 65 0c bd
       -0.008533222 0.14204301 0.08784322 -0.034276202
0003e0 24 33 c3 bd c0 a8 d3 3c 62 75 ca 3c 6c c0 d1 3d
       -0.09531239 0.025837302 0.024714176 0.1024178
0003f0 c8 e4 76 3d 8c f3 52 bc 45 5f 1e 3e c2 fd c8 3c
       0.060276777 -0.012875449 0.1546603 0.024535064

dense_5/Tensordot/MatMul_bias f4 [200]
000000 7b 65 56 3d 2d d2 83 3d 3a da 61 ba d2 58 9b bd
       0.052342873 0.06436572 -0.0008615587 -0.075853005
000010 d7 c8 50 3c ac da 93 bc 60 ab 50 3c b1 c5 c4 bb
       0.012743196 -0.018048607 0.0127361715 -0.006005012
000020 a1 cf 61 bb 79 04 a7 bc 32 b4 09 bc c3 10 63 3c
       -0.0034456032 -0.020387875 -0.008404778 0.013858977
000030 d2 90 57 bc 5f 2a b9 bc bd 0f 92 3d 6b ee 8b bc
       -0.013157086 -0.022603212 0.07131908 -0.01708146
000040 1e 54 ae bb d4 bd 9a bc f4 de 07 bc c8 7a eb bb
       -0.005320086 -0.018889345 -0.008292902 -0.0071862675
000050 00 00 00 00 94 cf 84 3d 97 78 e7 bb 39 90 ba 3c
       0.0 0.06484905 -0.007063936 0.022773849
000060 2d 1a bf 3c 9f d8 07 bd 70 af 9c 3d 61 93 6e 3d
       0.023327911 -0.03316557 0.076506495 0.05824602
000070 76 e8 a8 bb 2e 61 92 3c ae 4c de bb 90 20 56 bb
       -0.0051546646 0.017868605 -0.0067840433 -0.0032673217
000080 52 93 0e bc e6 e7 20 bc 3e 29 9b bb 1f a0 15 3c
       -0.008702116 -0.009820914 -0.004735141 0.009132414
000090 71 86 b0 3c 06 6f 5e 3d 40 b9 45 bc 57 00 bb bb
       0.021548482 0.0543051 -0.012068093 -0.0057068276
0000a0 ed 61 aa 3d 8d c4 17 bd e9 6f 85 3d 9b 3b 34 3d
       0.08319459 -0.03705268 0.06515486 0.044002157
0000b0 b4 ee bf bb 7d a0 38 bb 65 15 59 bc 30 c6 91 bc
       -0.005857313 -0.002817183 -0.01324973 -0.017794698
0000c0 6a 38 22 bb fa ba 05 bc 1d b8 e3 bc a7 53 7a bc
       -0.0024752864 -0.0081622545 -0.027797753 -0.015278733
0000d0 f1 d3 cb bb 87 6b 80 bd 67 c3 c4 bb 0f 9f c6 bb
       -0.0062203337 -0.06270509 -0.006004739 -0.0060614417
0000e0 fd e2 cd bb 6f bf 93 3d 92 25 b3 3d 63 0e 08 bc
       -0.0062831626 0.072142474 0.087474 -0.008304211
0000f0 42 a4 a9 3b 49 a9 b0 bc b9 a3 e7 bb 22 fb 8d 3c
       0.0051770518 -0.021565096 -0.007069078 0.017331664
000100 aa 58 c4 bc 32 e7 3a bc 00 39 22 bc ea 3f 24 bc
       -0.02396806 -0.01140766 -0.009901285 -0.010025004
000110 1c 08 3f 3d 86 b8 8d 3d 10 f5 7d bc 58 d6 12 bd
       0.046638593 0.06919961 -0.015500322 -0.035848945
000120 9c 62 14 bd 8f fe eb bb 4a 36 1e bd f7 b1 b5 bb
       -0.036226854 -0.0072019766 -0.038625993 -0.0055448967
000130 88 02 02 bd 0a 65 a7 ba 4c fe 07 bc 05 70 47 bc
       -0.031740695 -0.0012771201 -0.008300375 -0.012172704
000140 b0 e8 20 bc 41 33 f6 3c c5 f5 42 bc 0f 66 df bc
       -0.009821102 0.030053737 -0.011899416 -0.027270345
000150 97 35 c6 bd 3f be 8e bd 95 06 89 3d 29 e4 2c 3d
       -0.0967819 -0.0696988 0.066907085 0.042209778
000160 e9 34 03 bc e0 96 31 3d 04 8c 29 3c 82 73 18 3d
       -0.00800822 0.043356776 0.010348324 0.03721953
000170 6d c2 33 3d 09 7e a9 bb 9c 83 eb bb 6a d0 be bc
       0.04388659 -0.0051724953 -0.00718732 -0.023292739
000180 53 11 dd bb dc c9 3f bd 3a f9 02 bd c9 d1 57 bc
       -0.00674645 -0.046823367 -0.031975962 -0.013172575
000190 3f 61 24 bd 8e 0c d1 bc 21 3b ee bc a8 e5 4e bd
       -0.040131804 -0.025518682 -0.02908093 -0.050511986
0001a0 d2 6f 7e 3d 1f a9 da 3d 6d 81 5b bd 10 00 6e bc
       0.06211836 0.106767885 -0.053590227 -0.014526382
0001b0 7b 24 06 bc d0 c8 0c 3d 33 b8 97 3d b3 51 e0 bc
       -0.008187409 0.034371197 0.0740818 -0.027382707
0001c0 9f 0c 0e bb 77 3f 15 bc 67 e1 2d bc 91 c9 91 3c
       -0.0021675003 -0.0091093695 -0.010612822 0.01779631
0001d0 5e 38 33 bd ba 1a 2d bc 7a b6 c0 bc 43 00 0e bc
       -0.043754928 -0.010565454 -0.023524512 -0.008667055
0001e0 91 b3 14 bd 86 90 fa bb 47 64 8a bc f4 2c a3 bc
       -0.03630406 -0.007646623 -0.01689352 -0.019918896
0001f0 9e 39 38 3d a6 bc 9c 3d 60 35 66 3d e4 9a 84 bb
       0.044976823 0.07653169 0.056203246 -0.0040467847
000200 81 3c 09 3c e8 38 06 bd 85 de 13 3d 9f 84 19 3c
       0.008376242 -0.032769114 0.036100883 0.009369998
000210 f7 08 b7 bb 49 13 32 bd 32 c6 fe bb 4a bc c8 3b
       -0.0055857855 -0.043475423 -0.0077750916 0.0061259614
000220 77 be b5 bc 58 23 bc 3c e5 34 a6 3d 17 76 a7 3c
       -0.022185547 0.022966072 0.081155576 0.020442052
000230 bc ed 97 bb 39 af b8 bb 46 68 9c bd b8 1d 45 bd
       -0.0046364944 -0.0056361225 -0.07637076 -0.048124045
000240 af 13 09 bc ca e0 b6 ba cb 3e 95 3c 5a 1f 50 bc
       -0.008366509 -0.001395249 0.018218419 -0.012702787
000250 00 00 00 00 42 fa f0 bc 1c 71 88 bc 01 cb 3b bc
       0.0 -0.029416207 -0.016655497 -0.011461974
000260 94 2e 98 3b a1 a0 9d bc 31 03 f8 bc 25 65 88 3d
       0.0046442244 -0.019241633 -0.03027496 0.06659917
000270 e9 37 82 bd ef 3c 1e 3d db 9b 92 bc cb 38 e8 bb
       -0.0635832 0.03863233 -0.017896583 -0.0070868484
000280 d4 3b bd bb 02 6e ba 3c bb 9e 35 bc 96 2a ad 3d
       -0.0057749543 0.022757534 -0.011085208 0.08455388
000290 02 a3 10 3c 46 37 26 3d 24 03 f9 3b 00 00 00 00
       0.008827927 0.040580057 0.0075992513 0.0
0002a0 75 f2 96 3d 84 b8 8e 3d 5e 3f 38 bd 84 cc 92 bb
       0.07370464 0.06968787 -0.044982307 -0.0044799466
0002b0 00 00 00 00 c0 df 92 bd b3 7e aa bc c3 35 8c 3c
       0.0 -0.07171583 -0.020812368 0.01711548
0002c0 b4 a3 a2 bc 86 6b 44 bb cb 75 3c bc 62 ad c8 bb
       -0.01985345 -0.0029971316 -0.011502693 -0.0061241845
0002d0 f7 b2 ba bb 3c 2f 0d bc fd 57 87 bc 4d cf 83 3d
       -0.005697604 -0.008617219 -0.016521448 0.06436024
0002e0 52 0f 27 b6 e5 b8 90 3d bb 25 12 bd 41 df 0e 3d
       -2.4893857e-06 0.07066516 -0.035680514 0.03488088
0002f0 05 76 8e bc 70 34 3a 3d 67 b6 23 bc d1 c3 c4 bb
       -0.01739026 0.045460165 -0.009992219 -0.0060047884
000300 80 53 b4 3c c2 8e 7a bb 5c bc 31 bc f9 dc 58 bc
       0.022012472 -0.0038232063 -0.010848131 -0.013236278
000310 cb 6d 85 3d cf e7 f1 bb c3 6b c4 bc 49 d8 5d bc
       0.06515082 -0.00738237 -0.023977166 -0.013540336

dense_5/Tensordot/Reshape_1/transpose f4 [200, 500]
000000 7c 4d 81 bc be ec 34 bd 18 03 e1 bc 74 45 2f bd
       -0.015784018 -0.044171087 -0.027467296 -0.042790845
000010 bb 48 2c bd 20 27 b2 bd e1 9a bf 3c a1 25 67 bc
       -0.04206155 -0.08698869 0.023389282 -0.0141080925
000020 0c 5b 07 be 13 c4 c8 3d 8b b2 0e be c9 dd 80 bc
       -0.13218325 0.09803023 -0.13935296 -0.015730755
000030 cf 71 d7 3c 7c 8b a0 3b 39 de ab 3c 3c bb 90 bc
       0.026299385 0.0048994403 0.020979987 -0.017667405
000040 3a b8 d2 bc 11 72 07 3e 82 3b 35 bd 61 97 88 3d
       -0.025722612 0.13227107 -0.044246204 0.06669498
000050 2c 17 c4 3b f4 86 f4 3c cb f8 21 3d 45 16 d5 bd
       0.0059842076 0.029849507 0.039543908 -0.10404638
000060 30 ed 85 bd 73 ff f0 3d 2f 73 b0 3c d2 a9 63 3d
       -0.065393806 0.11767473 0.021539299 0.055581875
000070 cf a7 ec bd 55 d4 84 3d 5d 11 8f bd b6 00 29 3d
       -0.115554444 0.064858116 -0.06985734 0.041260444
000080 ca b7 b2 bd 14 6a 92 bd 4b b5 a4 3d e1 a7 bb bd
       -0.08726461 -0.07149139 0.080423914 -0.0916288
000090 b1 9e 07 3e 20 51 b5 bb 85 96 4d bd 1c f7 72 bd
       0.1324413 -0.0055333525 -0.050192375 -0.059317693
0000a0 e5 19 49 bc 8f 61 f8 3d f2 3a 09 3d 94 f0 ad bd
       -0.01227424 0.12127983 0.03350348 -0.08493152
0000b0 0e b6 31 3d c4 17 8b 3d 4e 4f 45 3e 1f 35 87 bd
       0.04338651 0.06791642 0.19268534 -0.06601929
0000c0 6e 77 fa bc 12 02 57 bc 79 b0 a7 3d 30 97 c6 bd
       -0.030574527 -0.013123052 0.08187956 -0.096968055
0000d0 66 08 40 3d 8b bb 60 3d 5f af 78 bd 7a 87 9a bd
       0.04688301 0.054866355 -0.060714122 -0.07545371
0000e0 7a 1d a3 bd f2 9a 84 3c d3 ac af bd be 0e f7 bd
       -0.079646066 0.016187165 -0.085778855 -0.12063359
0000f0 84 21 53 3b 4e dc fe 3c c9 56 bd bc 09 da 41 bc
       0.0032216022 0.031110909 -0.023112671 -0.011831769
000100 52 b2 18 be c1 2f 9e 3d e7 91 ab bd 00 bf ac bd
       -0.14911774 0.07723952 -0.08377438 -0.08434868
000110 ce ee 05 bd b4 0b 86 3c 75 36 a3 3d b2 4b 94 3d
       -0.032698445 0.016363002 0.07969371 0.07241
000120 35 ce bb bd 72 05 64 3d e3 33 c8 3c c8 79 91 3b
       -0.0917019 0.055669256 0.024438804 0.0044395663
000130 15 23 f0 3d 8e be a1 3d c3 6b f7 bb 77 62 e8 bd
       0.11725441 0.078976735 -0.007550688 -0.11346906
000140 f9 fc ca 3d 7b f5 97 bd e3 3a 97 3d 7d 9e c4 bd
       0.09911532 -0.074198686 0.073842786 -0.09600542
000150 75 c0 db bd 36 d5 85 3d b6 21 05 3d 92 c8 41 bd
       -0.10730068 0.065348074 0.032502852 -0.04731042
000160 52 73 7f 3b c5 52 94 bd ab 31 de bc c9 a6 52 3d
       0.0038978648 -0.072423495 -0.027123293 0.05142859
000170 3a 50 e4 3b 63 dc a7 bd 27 d6 93 3c b0 17 00 3e
       0.0069675716 -0.08196332 0.018046452 0.12509036
000180 98 e9 16 3e bd b3 76 3c be 25 b2 bd 8e a3 c4 3d
       0.14737546 0.015057501 -0.08698605 0.09601508
000190 c3 4b 11 3d 78 32 af bd f1 22 ee 3c f8 1b 87 bd
       0.035472643 -0.08554548 0.029069396 -0.065971315
0001a0 59 ee 6f bc d1 a6 33 3d 2f fd a3 3d 7b 7c 0f 3d
       -0.014644229 0.04386026 0.08007275 0.035030823
0001b0 ca 6e 8d 3d 20 91 9f bd 53 c6 84 3d 22 7b 66 bd
       0.06905897 -0.07791352 0.0648314 -0.056269772
0001c0 07 3d 95 bc 12 2e 9e 3d 3e 9a cd bc 14 ad d3 3c
       -0.018217577 0.07723631 -0.025097962 0.025839366
0001d0 11 ce 33 3d e5 fe ec 3d e0 69 59 bd e7 25 92 3d
       0.043897692 0.11572055 -0.053079486 0.071361355
0001e0 79 63 85 3d f2 57 19 3d a7 83 8f bd 84 20 b1 bd
       0.065131135 0.037437387 -0.070075326 -0.0864878
0001f0 8b d3 67 bd 24 c4 ee 3b dc 39 3b 3c 85 8b 9c 3d
       -0.056598227 0.0072865654 0.011427369 0.07643799
000200 ed ac a0 bd c8 4a 40 bc 22 fa 00 3e 10 09 60 bc
       -0.07845483 -0.011736579 0.12595418 -0.013674036
000210 a9 60 eb 3d 10 13 91 bd 84 c3 c2 bc 9f c0 9f 3b
       0.11493046 -0.07083714 -0.02377487 0.004875257
000220 16 e0 b1 3d 61 87 b4 3d 7a 6a 07 bd ed ea 7a bd
       0.08685319 0.08814884 -0.03306053 -0.0612592
000230 df a5 8b bd 3e 87 40 3c fe ac f4 bd 0d bb cb bd
       -0.06818747 0.011750994 -0.11947058 -0.099477865
000240 db 3b 83 bd 14 3a 5a 3d c6 f4 7b bd c8 23 52 bc
       -0.06407901 0.053278044 -0.06151273 -0.012825914
000250 20 fa 93 bd 1e 46 6c 3c 1d af 07 3d b4 ba aa bc
       -0.07225442 0.014421014 0.033125985 -0.02084098
000260 b4 a4 fa 3d a4 ee 5d bd 7e 49 46 3d da 4d 70 be
       0.12238446 -0.054182664 0.04840993 -0.23467198
000270 b2 b1 29 3e 2f 98 8b 3d bc b9 0a 3d 31 fa 27 bc
       0.16571692 0.06816136 0.033868536 -0.010252521
000280 7c 7a 0d be 14 d5 da 3d ba 50 71 bc 55 52 21 bd
       -0.13816255 0.10685173 -0.014728719 -0.03938516
000290 12 3c 4c bd 93 7f 3c 3e c6 a3 da 3d d7 73 90 bd
       -0.049861975 0.1840804 0.106757686 -0.07053345
0002a0 73 60 58 bd e8 8f f2 3c 29 42 92 3d c2 42 6c bd
       -0.052826356 0.029609635 0.07141525 -0.057680853
0002b0 5c 0e 82 bb 61 72 93 3d d9 70 a6 3d 6e 39 96 bd
       -0.003968997 0.071995504 0.08126993 -0.073351726
0002c0 34 f5 b5 bd d3 dd 2c 3d e6 68 15 be 6c b0 01 bd
       -0.088846594 0.042203736 -0.14590797 -0.03166239
0002d0 60 5c 8c bd c2 20 e6 3c 51 ec c4 bc 44 f4 70 bc
       -0.06853557 0.028091792 -0.024038466 -0.014706675
0002e0 79 b2 2a 3d f1 40 83 3e 41 3b 0d bd 05 7d b6 bc
       0.04167411 0.25635484 -0.034480337 -0.02227641
0002f0 b2 5c 0f 3b f9 32 12 3e 12 0f 81 bd 47 40 8b 3d
       0.002187532 0.14277257 -0.063017026 0.06799369
000300 fb 68 2c 3d 33 76 0b bc 53 89 9e bb 39 b9 9a bd
       0.042092305 -0.008512068 -0.0048381477 -0.0755486
000310 af b4 18 bd da 02 b1 3d 2b 0c c6 bd d4 e4 07 3d
       -0.03728169 0.08643122 -0.096702896 0.033177212
000320 00 b5 1d 3d 5a 2f 36 bb 02 85 80 bd 34 57 f9 3c
       0.038502693 -0.002779922 -0.06275369 0.03043709
000330 98 12 59 3c 13 e3 ca bd 12 9a cc bb b5 51 89 bd
       0.013249062 -0.09906592 -0.0062439525 -0.067050375
000340 27 4e a3 bd fc ff 06 bd 63 d6 d3 bd 34 69 2c 3d
       -0.07973891 -0.03295897 -0.103436254 0.042092517
000350 92 e4 fe 3b c6 3f aa bd fc 1a be 3c f1 43 87 3d
       0.0077787125 -0.08312945 0.023206227 0.06604756
000360 16 7c 25 3d d3 a6 0d 3c 7d b7 0f bd f2 0c 4f 3e
       0.04040154 0.008645731 -0.035087097 0.20219782
000370 4a ae 8e bd 35 9b 07 3c 4d 55 c1 3a 89 2a a2 bd
       -0.06966837 0.00827675 0.0014750153 -0.07918269
000380 4f 21 ca 3d 98 97 83 bd e5 b7 14 bd ac 06 1d 3d
       0.09869634 -0.064253986 -0.036308188 0.03833644
000390 4c 04 fa bc f2 5b e6 3b d0 78 a9 3d b1 e2 c9 bd
       -0.030519627 0.0070300037 0.08274996 -0.09857691
0003a0 48 7a 0f bd d0 bd 72 bd 49 2f 26 be 85 ce 4a 3d
       -0.035028726 -0.05926305 -0.16228975 0.04951336
0003b0 5c a4 da 3c 44 5f b5 bd 50 e2 a6 bb 1a de 8a 3d
       0.0266897 -0.08856061 -0.0050928965 0.06780644
0003c0 b0 fc bc bc 51 bf 17 bb 69 c2 e0 bd 46 a7 3b 3d
       -0.02306971 -0.0023154805 -0.10974581 0.04581382
0003d0 8d ec 24 3d 65 51 03 3d ba f6 ab bd cc cc 30 bd
       0.040264655 0.032060046 -0.08396669 -0.04316406
0003e0 ce 19 4c bc 5b 9c 91 3d 91 a3 a9 3d 11 ed c5 3c
       -0.012457324 0.071099006 0.08283151 0.024160894
0003f0 d3 2e ee 3d 42 1d b8 3b f0 bf a2 3c f8 a4 b2 bd
       0.11630025 0.005618722 0.019866914 -0.087228715

dense_6/Tensordot/MatMul_bias f4 [100]
000000 2b 37 aa 3c 02 2f 08 bd be 48 11 bd f7 e9 1d 3d
       0.02077826 -0.033247955 -0.035469763 0.038553204
000010 d3 f2 06 bd 04 6c 84 bd 35 5e 50 bd af f7 5c bc
       -0.03294642 -0.06465915 -0.050871093 -0.013486787
000020 18 5e 11 bc 86 1d fa bd 2c be 5a 3b 69 d5 cd bd
       -0.008872531 -0.122126624 0.0033377511 -0.100504704
000030 0b 24 40 3d 2e 64 3e ba 5e 00 6a bc 6c 4a 5d bd
       0.046909373 -0.0007262853 -0.014282314 -0.054026052
000040 e3 a0 9f bd 56 df 8e bc 1c 12 ee bd 75 1c 0c 3d
       -0.077943586 -0.01744048 -0.11624548 0.034206826
000050 52 c2 78 bd ac f8 03 3d a4 e5 9d bc 89 0a ea 3c
       -0.060732193 0.032219574 -0.01927454 0.028569477
000060 4c 7b f8 3c a2 9d fe bc 48 cd 9d bd f9 f2 a5 bc
       0.03033223 -0.031081025 -0.0770517 -0.02025746
000070 02 88 c5 bc 77 d4 3c bd 3d cd 96 bc 39 d3 dd 3c
       -0.024112705 -0.04610106 -0.018408412 0.027078258
000080 13 7a 10 bd 8b 3b 33 bd ef 8c 6f 3d 46 1b 91 bd
       -0.03527267 -0.043757956 0.058484014 -0.0708528
000090 33 e0 01 3c 2e 0b ec bd 58 57 40 bc cc 15 c6 bd
       0.007926988 -0.1152557 -0.011739574 -0.09672126
0000a0 48 df 14 bd 4d 27 88 bd cc 67 25 3d 14 b7 86 bd
       -0.03634575 -0.06648121 0.04038219 -0.06577888
0000b0 a9 c3 2c bd f2 0b 4f 3d a6 14 4f 3d 01 ff 8a bc
       -0.042178784 0.0505485 0.0505568 -0.016967298
0000c0 42 e1 a8 3b d6 3f 3d bd 0b 98 cb bc 1d 49 e8 3b
       0.005153806 -0.046203457 -0.024852773 0.007088794
0000d0 39 95 ed b8 f3 ac d5 3b 72 43 e2 bc 5b 91 fc bd
       -0.000113288355 0.0065208613 -0.027620051 -0.12332412
0000e0 91 c3 33 be 03 0c f6 bd 2c 74 a8 3c b8 26 4c 3d
       -0.17555071 -0.1201401 0.020563208 0.049841613
0000f0 26 08 e4 bc 6e cd 99 3d 83 ba 20 bd 8e 99 06 bc
       -0.027835917 0.07509886 -0.03924037 -0.008215321
000100 6a e2 de 3d cf b7 80 3d b6 86 c9 bc b1 a3 25 bd
       0.10883029 0.06285059 -0.024600368 -0.04043931
000110 d0 94 ff bb be a9 b4 bc 7b dd 8a bd 30 f1 08 bd
       -0.0077997223 -0.022053596 -0.06780525 -0.03343314
000120 b6 cf 01 be 18 b7 47 bd e0 35 fa 3c 62 65 02 be
       -0.12676892 -0.048758596 0.030543268 -0.12733987
000130 bc 74 c4 bb 0e 98 1f bc 00 00 00 00 11 87 c8 bc
       -0.005995361 -0.0097408425 0.0 -0.024478467
000140 93 4d 3f bc 95 4a f1 bd ff b6 3e bd 0a 94 6d bc
       -0.01167621 -0.117818035 -0.046561237 -0.014500627
000150 c5 af a1 bd 2e 3e 99 3d 95 db 1b 3d 5d cc 32 bc
       -0.078948535 0.07482563 0.038051207 -0.010912982
000160 dd fc ab bb 1b 19 2b 3d 88 1c 75 bd 77 94 25 3d
       -0.0052486495 0.04177199 -0.059841663 0.04042479
000170 68 de 91 bb 12 d2 83 bd e7 ba 07 bb 83 22 fa 3d
       -0.0044515617 -0.06436552 -0.0020710768 0.12213614
000180 f6 53 d7 bd 92 fd e4 bd 03 15 a4 bc 11 6f bd 3d
       -0.10514061 -0.11181177 -0.02002955 0.092497

dense_6/Tensordot/Reshape_1/transpose f4 [100, 200]
000000 22 41 b4 bd 50 65 0e be 0f 29 c0 bd dc db a8 3c
       -0.088014856 -0.13905835 -0.09382831 0.02061265
000010 38 d0 46 3d 29 0a 02 bd 49 ba 4a 3d bc f4 bf bd
       0.048538417 -0.03174797 0.04949406 -0.09372851
000020 60 32 6d bc 86 8e af bd e5 6b 85 bd d8 a4 13 be
       -0.014477342 -0.08572106 -0.0651472 -0.14418352
000030 48 55 b7 3d fa b9 a0 3d 5e 7d 6f 3d 5d bb 14 be
       0.08951813 0.07847972 0.05846917 -0.14524598
000040 df 27 00 be 9e a4 d1 3d ae 53 d1 3b 12 c2 e6 bd
       -0.1251521 0.10236476 0.006388149 -0.11267485
000050 de 0c b9 3d e4 73 b1 3d 82 44 d0 3d 0f c4 95 be
       0.09035657 0.086646825 0.10169317 -0.29251143
000060 13 dd 5c bd 33 90 88 bd db 85 ad bd 5e 0e 4c 3d
       -0.05392177 -0.06668129 -0.084727965 0.04981839
000070 11 76 bb bd 4f 81 f8 3c 75 fc 94 bd c0 4b 90 3e
       -0.09153379 0.030335097 -0.07274715 0.28182793
000080 88 b6 1b bd 94 51 9f bd 22 ca 4a bd 86 9c a9 bd
       -0.038015872 -0.07779232 -0.049509175 -0.082818076
000090 6b 8e f6 3c 41 6e d3 3d d3 6e fd bd 29 e6 99 bd
       0.030097207 0.10323764 -0.12374654 -0.07514603
0000a0 3e 5b b9 3d 5a 44 fb 3d 72 17 68 3c a4 32 9b 3d
       0.09050606 0.122688964 0.014165746 0.07578018
0000b0 84 a3 8d bc 33 4b 30 bd 06 3e c3 3d 76 df 5b bd
       -0.017289884 -0.043040466 0.095333144 -0.053679906
0000c0 e4 0c 92 3e 07 d2 9c 3d cf fa 50 bd bf 3b de bd
       0.2852546 0.07657247 -0.05102044 -0.108512394
0000d0 cc 6d 86 3b 87 14 e0 bd 08 dd 06 be eb a3 81 3c
       0.0041024443 -0.10941415 -0.13170254 0.015825232
0000e0 99 bf f6 bc 55 9f 87 3d 96 da ba 3d ab 58 c2 bb
       -0.030120658 0.06622187 0.09123723 -0.00593098
0000f0 cd 77 74 3e 81 2a 02 3e db a0 bb 3c e5 86 fb 3d
       0.23873825 0.12711526 0.02290385 0.122815885
000100 ae bd be bd 41 0c 04 be 00 66 16 bd 6a 0c f2 bd
       -0.09313522 -0.128953 -0.03671837 -0.11818774
000110 0f a4 c6 3d b8 7b 12 3e f4 7f f1 3d 0e f8 95 bd
       0.096992604 0.14305007 0.11791983 -0.07322703
000120 dd 4c 91 be be ae e2 3d b7 bb 05 be 3b b4 92 bd
       -0.28378955 0.11068486 -0.13059889 -0.071632825
000130 cb 4f a0 bd db e5 32 bb e4 95 15 3e 23 f9 06 3e
       -0.07827719 -0.002729765 0.1460796 0.13180976
000140 3b 33 08 be 95 0e b7 bd 6c da 8f bd 0b 87 f5 3d
       -0.13300793 -0.08938328 -0.070240825 0.11988648
000150 25 02 86 be 73 be ab be 1b 07 b4 bd d9 a7 1b be
       -0.2617351 -0.3354374 -0.08790418 -0.15200748
000160 91 12 51 3d 91 63 24 be 6e 08 83 3d 1a 23 e5 3d
       0.051043097 -0.16053607 0.06398092 0.11188336
000170 ec 4f dd 3d d8 dc e0 bd 01 40 16 3e e7 a7 6a 3d
       0.108062595 -0.109796226 0.14672853 0.05728903
000180 32 cd 93 3d 51 bb 90 bc fe 68 76 3c 95 00 1a 3e
       0.07216872 -0.017667444 0.0150396805 0.15039285
000190 31 2c 46 be 9c 8a ec 3c e9 fe af 3d 74 01 0a 3e
       -0.19352795 0.028874688 0.08593542 0.13477117
0001a0 2b 0e 05 3e 65 48 ea bd e4 7c 84 bd 16 dc e1 3c
       0.12993686 -0.114395894 -0.064691335 0.027570765
0001b0 b3 7e e5 bd d5 20 7f 3c 99 af 80 bc df aa 1b be
       -0.112058066 0.015571793 -0.015708731 -0.15201901
0001c0 8d 05 01 3e 85 0e c7 3c fc f3 06 3e 4d fd 03 be
       0.12599774 0.024298916 0.1317901 -0.12889595
0001d0 51 5a 5f be e1 71 ab 3a 9e de 0f 3d 2f e4 a3 3d
       -0.21811797 0.0013080203 0.035124414 0.08002507
0001e0 04 8c fd 3d 30 cf cd 3d 27 d3 b2 3d e3 bb 83 3d
       0.123802215 0.100492835 0.0873168 0.06432321
0001f0 71 4a 23 be 9b c3 40 3e 5f d3 91 be b5 4b 6d 3d
       -0.15946366 0.18824618 -0.28481576 0.057933528
000200 65 23 cd 3d 45 29 9b bc d3 c9 cc 3d 02 77 86 bc
       0.100165166 -0.018940577 0.099994324 -0.01641417
000210 17 39 74 3d 4c a9 ef 3a 52 89 eb bc 7c c7 25 be
       0.059624758 0.0018284707 -0.028752003 -0.16189378
000220 ca 0c 78 3d 9d d1 20 3d 32 6f 0c bc 2c 22 da 3d
       0.06055907 0.039262403 -0.008571433 0.10651049
000230 11 87 96 3d 5b 33 bd bd ac 37 ac 3d d7 2b 05 be
       0.073499806 -0.09238311 0.08409056 -0.13005005
000240 f6 75 01 be c7 a1 5d 3e 92 43 0f 3d 57 a5 10 3e
       -0.12642655 0.21643744 0.03497655 0.14125572
000250 d4 a4 a1 3d 4a 1d dc 3d f8 f8 e0 bd 5c 0c 4a bd
       0.078927666 0.10747774 -0.10984987 -0.049328193
000260 df 15 92 bc a4 71 28 bb dc db e7 bc fb 78 6c bc
       -0.017832695 -0.00257025 -0.02830308 -0.014433141
000270 3e 0b c7 bd 04 8a 1d 3e 2d eb 69 bd 6c a6 44 3d
       -0.09718941 0.1538468 -0.057109047 0.048010275
000280 46 97 05 3e d4 19 5c be c3 0c 06 bd 95 ef ac 3d
       0.13045987 -0.21494228 -0.032727014 0.08444134
000290 dd 80 34 bc 21 64 bd bd f9 5b d9 bd 6e 3e 85 3d
       -0.0110170515 -0.09247614 -0.106132455 0.06506048
0002a0 f3 a0 5e 3d 2c a8 1f bc ee 5e d6 3c 88 f3 27 bd
       0.054352712 -0.009744685 0.026168313 -0.041003734
0002b0 c0 a2 92 bc 0c ca 02 be 4c 07 c8 3d 2a d3 73 3d
       -0.01789987 -0.12772387 0.09767017 0.059527554
0002c0 a1 aa 42 3d 0c 26 30 be 98 19 5b be 1c 22 b8 3d
       0.047526006 -0.17202014 -0.21396482 0.08990881
0002d0 06 70 be bd 9d 00 73 3d 02 e1 da bd bb 20 2a bd
       -0.092987105 0.059326757 -0.10687448 -0.04153512
0002e0 40 47 1c bc 0e a2 87 3d 0c 28 54 bd 9a cd 1c be
       -0.009538472 0.06622706 -0.051796004 -0.15312806
0002f0 06 32 19 3e 4a 2e bb bc 8a c0 8a bd c5 9c 97 3d
       0.14960489 -0.02284922 -0.06775005 0.07402948
000300 84 20 9b bc 85 49 6e 3d 64 dd 91 3c be d7 00 bd
       -0.018936403 0.058175582 0.017805763 -0.031455748
000310 cd e5 e2 3d 5a 56 ee bd 7d 51 01 be c5 f8 a7 bc
       0.11078987 -0.11637564 -0.12628742 -0.020504365
000320 ae a9 a4 bd d2 b5 0f be 62 84 e7 3d 56 ed 34 3c
       -0.08040176 -0.14034203 0.11304547 0.011042913
000330 d0 b2 4d 3c b4 63 50 3d c2 59 c1 bc 02 00 e8 3d
       0.012554839 0.050876334 -0.02360237 0.113281265
000340 a2 9b a5 3d 36 28 e2 3d 6f 0a 3d 3d 10 b3 2e bc
       0.08086325 0.11042826 0.04615253 -0.010662809
000350 70 85 d2 bd 3e ca 13 bd 40 fb 28 be 6c a2 94 bd
       -0.102793574 -0.036081545 -0.16502094 -0.07257542
000360 b0 54 60 3c 80 fc 82 bc f4 a4 71 3d 52 e7 41 bd
       0.013692066 -0.015989542 0.058995202 -0.047339745
000370 00 95 88 3d 8b b0 63 3d 00 a1 ba 3d 00 6a c9 3d
       0.066690445 0.055588286 0.091127396 0.09834671
000380 42 d4 b3 3d de b4 c5 3d 12 77 d7 bc 4a 2a e5 3a
       0.08780719 0.09653638 -0.026301894 0.0017483917
000390 a4 53 e4 bc 90 bb 4d bc e0 22 ae 3d f0 e1 21 3d
       -0.027871914 -0.012556925 0.08502746 0.03952211
0003a0 e5 39 b7 bd 18 3d cd bd 80 35 e1 3a b4 27 a1 bc
       -0.089465894 -0.10021418 0.0017182082 -0.019672252
0003b0 4e df f5 3d cd 58 08 be 5a 27 58 bd e3 0c fb bd
       0.120054826 -0.13315125 -0.052771904 -0.12258317
0003c0 4c 55 c9 bc 0c cc 1c 3d 69 ed 94 3c 33 47 85 bd
       -0.024576806 0.03828053 0.018179612 -0.06507721
0003d0 90 7d 40 3d d0 df 9c 3d 50 f1 3d 3c 40 0a bd bc
       0.046994746 0.07659876 0.011593178 -0.023076177
0003e0 c6 1c eb 3d 4e 3c ba bd c0 99 0b bb 1e 83 89 3d
       0.114800975 -0.090935335 -0.002130136 0.06714462
0003f0 c0 8b 2f bc 39 14 a1 bd 00 0b 65 bc f4 e6 95 3d
       -0.010714471 -0.07865185 -0.013979673 0.073194414

dense_7/MatMul_bias f4 [9]
000000 09 a4 e8 3d fc 08 73 bd ff 7a 73 bd ee 0b 23 3d
       0.11359412 -0.05933474 -0.05944347 0.0398063
000010 35 28 0c bd 52 d2 2e bd d1 68 c0 bc ac e6 0e 3c
       -0.034218032 -0.042681046 -0.02348748 0.008721989
000020 69 b5 4e 3c
       0.012616494

dense_7/kernel/transpose f4 [9, 7500]
000000 20 3d 0b be 74 31 86 3c 42 8e 04 bc b0 2f cc be
       -0.13597536 0.016381003 -0.0080905575 -0.39880133
000010 cd 1f cb bb 0b c1 32 be 03 c9 51 bb 61 bd ed bb
       -0.0061988593 -0.17456453 -0.0032010681 -0.0072552417
000020 00 aa bb 3b 4a af e9 3d 26 55 bf 3c 19 55 a6 be
       0.0057270527 0.11410387 0.023356032 -0.324868
000030 cf 0f c8 bc 8c 4e 8f be c8 8e 6f 3c c3 04 54 be
       -0.0244216 -0.27989614 0.014621444 -0.20704941
000040 b6 47 d5 3c 5a 5d 21 bc e2 78 58 be 60 b4 e1 3c
       0.026035171 -0.009848917 -0.21139863 0.02755183
000050 88 cd 3c bd 22 c7 0d bf 06 21 49 be ff 00 08 bd
       -0.046094447 -0.5538198 -0.19641504 -0.033204075
000060 4c 4b e2 3d 80 85 f3 ba 2a b4 b3 be 94 92 1e bd
       0.11049518 -0.0018579215 -0.35098392 -0.038714007
000070 48 13 51 ba f5 e0 41 be 27 97 28 be ee ad 82 3c
       -0.00079755904 -0.1893347 -0.1646391 0.015952077
000080 47 ed 22 be 8d c7 6a be 76 d3 a1 be 20 73 d8 bd
       -0.15910827 -0.22927685 -0.31606644 -0.10568833
000090 bb 09 9a be e8 e6 7e be 97 2a 3f 3c 70 07 3d bc
       -0.3008555 -0.24892771 0.011667869 -0.011537418
0000a0 d8 ff 67 be 53 02 43 be d1 1a 26 3d a7 4a 9c 3e
       -0.2265619 -0.19043855 0.040552918 0.30525705
0000b0 bb e7 aa bd d2 ec 51 3e 72 91 4c be dd 90 15 bd
       -0.0834498 0.20500496 -0.19977358 -0.036515106
0000c0 b9 93 d1 bd 93 86 70 be 73 04 5b be a6 d6 1c be
       -0.10233254 -0.23488836 -0.21388416 -0.15316257
0000d0 ac 94 e5 bb 1a b5 ba 3d ce 5e 5a be ee 2b 9b be
       -0.0070062485 0.09116574 -0.21325228 -0.30306953
0000e0 dc 76 0a bd 7a 34 0a 3e 8b 81 f6 3d ed b7 cd be
       -0.03380476 0.1349658 0.12036427 -0.40179387
0000f0 41 60 5c bc ea 83 cc 3d 2d 22 84 bc 7d 65 8d bd
       -0.013450683 0.09986098 -0.016129578 -0.06904123
000100 7f e7 6d be bb ad a6 3c 7a f7 ba 3c f8 22 b7 bc
       -0.2323284 0.020346513 0.022823084 -0.022355542
000110 3e 78 96 3c 6e ad f1 bc 72 ef c7 3e 7d 6a 59 bd
       0.018367883 -0.029501643 0.3904987 -0.05308007
000120 6f 87 25 bf 18 59 c6 3e 12 78 e8 be 06 00 b0 be
       -0.6465978 0.38739848 -0.45404106 -0.34375018
000130 5c 74 ce 3c 4e 3e 44 be 1c c2 a8 3c a1 58 43 be
       0.025201969 -0.19164392 0.020600371 -0.19076778
000140 47 22 93 bd 08 25 fd bd e4 26 4d be 61 aa d8 3b
       -0.07184272 -0.12360579 -0.20034367 0.0066121076
000150 63 75 85 be a2 a8 92 3e 13 78 cb be 19 ea d8 bd
       -0.2606612 0.28644282 -0.39740047 -0.105915256
000160 5d 6c 37 3d 78 a3 ad be 04 7c b8 bb c9 ee 68 3e
       0.044781078 -0.3391378 -0.005630018 0.2274734
000170 05 48 5e be a5 29 96 bc 80 e1 e8 bc 74 7c 29 be
       -0.21707161 -0.018330405 -0.02842784 -0.16551381
000180 4e 95 75 be 68 92 34 bf 6b 05 5d 3d 8c 95 39 be
       -0.23982736 -0.705359 0.053960245 -0.18123454
000190 e9 7c 13 be 00 08 73 3b 1b 75 0f bd 6f 34 a0 be
       -0.14403118 0.0037083626 -0.03502379 -0.31290004
0001a0 fe ea ef ba c7 07 78 be bd ed 7f bd b7 64 20 3c
       -0.0018304286 -0.24221717 -0.062482584 0.009789637
0001b0 1c 93 ae 3c 9d fd 7f 3d a5 6f 07 3d ac e8 b9 be
       0.021310382 0.062497724 0.033065457 -0.36310327
0001c0 89 71 76 bd 4e 93 80 be b1 43 93 bc d1 7b 53 be
       -0.06016687 -0.25112385 -0.017976614 -0.20652701
0001d0 04 93 65 3c 7f 93 9a 3c 77 d0 12 be 2d 44 4a 3d
       0.014012102 0.01886916 -0.14337336 0.049381424
0001e0 03 93 9c ba 86 bd f4 be 19 dc 2d be 26 6d f4 bd
       -0.0011945668 -0.47800845 -0.16978492 -0.11934881
0001f0 7a 5d 9c 3d 42 0b 3c bc 66 ea 86 be 24 24 72 bd
       0.07635017 -0.011477293 -0.26350707 -0.059116498
000200 86 4c d9 bc ea 22 19 be 2c c7 0f be 96 38 a6 bb
       -0.026525747 -0.14954725 -0.14040822 -0.0050726635
000210 74 db a5 bd 62 93 12 be 05 1a 8e be 3f 56 4a bd
       -0.08098498 -0.14314035 -0.27754226 -0.049398657
000220 cc 0e a2 be 30 9a 63 be 2b a9 87 bb a6 6c 04 bd
       -0.31651914 -0.22226787 -0.0041400394 -0.032330178
000230 d8 f6 40 be 9d e1 56 be 57 44 dd 3c e8 42 7d 3e
       -0.18844163 -0.20984502 0.027010126 0.24732554
000240 b6 7b b0 bd 03 48 6b 3e 0e d8 2d be 55 b9 67 bc
       -0.08617346 0.22976689 -0.1697695 -0.014143308
000250 30 3b dc bd 39 43 5b be f3 a1 53 be b1 9a 0a be
       -0.107534766 -0.21412362 -0.20667247 -0.13535573
000260 a4 28 5f 3c 65 ac 85 3d b3 f8 5d be 0d 55 9a be
       0.013620529 0.06527022 -0.21676902 -0.30143014
000270 ee 1b 63 bd 42 ae 9b bd ca f6 49 3d 8c 81 ab be
       -0.055446558 -0.076015964 0.049307622 -0.33497274
000280 8d 7d f5 bc 90 41 03 3e da 7e 8c bc b0 2f 5c bc
       -0.029967094 0.12817979 -0.017150331 -0.013439104
000290 15 99 68 be c8 c5 b0 bb 3d fc 07 3d 50 0a 76 3c
       -0.22714646 -0.005394671 0.033199538 0.015017107
0002a0 aa 26 84 bc aa 01 dd 3b 8a 38 b2 3e e0 ea 8e 3b
       -0.016131718 0.006744583 0.3480876 0.0043614954
0002b0 55 fd 14 bf 3b a2 9a 3e 2c 31 e9 be ec 18 a3 be
       -0.58199054 0.30201897 -0.45545328 -0.3185495
0002c0 96 6d c1 3c 94 d2 54 be ec cd 1d 3c 78 8d 58 be
       0.023611825 -0.20783454 0.009631615 -0.21147716
0002d0 42 8a 36 bd cb 83 ab bd da fb 29 be 3d 51 cc bc
       -0.044565447 -0.08374747 -0.1659998 -0.024941081
0002e0 0a 6d 63 be 83 b3 7d 3e 31 5e 9c be c7 0a 1f be
       -0.22209564 0.2477551 -0.30540612 -0.15531455
0002f0 6e f2 4f 3c 69 3c 86 be 41 b2 95 bc 4f bf 53 3e
       0.012692077 -0.26217964 -0.018273475 0.20678447
000300 43 12 5e be 99 87 92 ba a1 43 cb bd de 24 2e be
       -0.21686654 -0.0011179327 -0.099250086 -0.17006251
000310 e0 f6 44 be 77 87 4c bf a8 3f c6 3c 58 87 0c be
       -0.192348 -0.798942 0.024200276 -0.13723505
000320 e2 8e 2d be d8 f9 4e bb db ec 20 bc 9d af 8f be
       -0.16949037 -0.0031582024 -0.009822096 -0.2806367
000330 fd 27 5c 3b 2b 37 8a be 86 e6 cf bd b7 be 5e 3c
       0.003359317 -0.26995215 -0.10151391 0.013595275
000340 a0 26 35 ba ea 92 0e 3d a9 c8 c3 3c d3 46 d7 be
       -0.00069103576 0.034808077 0.023899393 -0.42046222
000350 e7 6b 92 bd 7a 6f 95 be e0 6f ab 3c c5 c2 7b be
       -0.07149487 -0.29186612 0.02092737 -0.24586017
000360 55 fc 86 bb 53 29 8a 3b a7 03 26 be cf a1 ae 3b
       -0.004119436 0.004216352 -0.16212331 0.0053293477
000370 15 13 84 3c e3 0d e6 be b5 b9 fe bd 21 fa e7 bd
       0.01612238 -0.4493247 -0.124377646 -0.11327005
000380 d2 9a 5a 3d ca 82 aa bb aa 95 44 be 17 ba 67 bd
       0.053370304 -0.0052035796 -0.19197717 -0.056573953
000390 e7 c9 de bc b2 e9 2e be a8 4b 3b be f7 43 27 bd
       -0.027195884 -0.17081335 -0.1829058 -0.0408363
0003a0 1e 39 fe bc 5d c9 8f bd f5 92 82 be 14 f7 ad bc
       -0.031033095 -0.07020829 -0.25502744 -0.02123598
0003b0 0a 37 8c be 79 3d 59 be c5 30 d0 3c d0 38 d5 bc
       -0.2738574 -0.21214856 0.02541388 -0.026028067
0003c0 51 df 08 be f3 3a 80 be 70 37 6e 3d 64 27 57 3e
       -0.13366438 -0.25044975 0.058158338 0.2101112
0003d0 b6 f3 29 bd 3a 81 81 3e aa d9 28 be 03 08 86 3b
       -0.041492186 0.25293905 -0.16489282 0.0040903105
0003e0 55 5e af bd 9f a7 20 be 3f ce 3f be f1 c3 17 be
       -0.08562914 -0.15688942 -0.1873102 -0.1482084
0003f0 90 78 a4 3b be 2c 6d 3d 55 32 5b be 41 a7 a0 be
       0.005019255 0.057903998 -0.21405919 -0.31377605
